model_23_0.01.pth (torch, 188067 bytes, 18 tensors)

cnn.0.weight f4 [20, 1, 5, 5]
000000 2a b7 44 bd 9a 43 54 3c af 45 fc 3d c7 4a ba bd
       -0.04802624 0.012955571 0.123179786 -0.09096294
000010 4c ac ea 3d 62 0e 94 3d 79 02 93 bd 0d 84 bf bd
       0.11458644 0.07229306 -0.07178206 -0.093513586
000020 34 27 fa 3d 87 55 e4 3d b9 62 21 be 1e 33 bf bd
       0.12214509 0.111491255 -0.15760316 -0.09335922
000030 35 e2 cc 3c 84 aa 82 bb 9b 04 04 be e2 e8 b9 bd
       0.025010208 -0.003987612 -0.12892382 -0.09077622
000040 32 c1 ab 3b dd 18 6d bd e1 53 fa 3b e2 3d 90 3b
       0.0052415365 -0.05788504 0.0076393937 0.0044019083
000050 bd 86 7b 3d 5a 96 0d be 8d 67 ca bd 2f 81 10 bd
       0.061407793 -0.13826886 -0.09883032 -0.03527945
000060 4a 97 c4 bd 90 c0 9f 3b b4 7a 52 3d 12 1a 0d 3e
       -0.095991686 0.00487525 0.05138655 0.13779476
000070 2c e1 75 38 47 39 78 3d ae cd 09 bd 7c 97 b2 bb
       5.862226e-05 0.0606015 -0.033643417 -0.0054501873
000080 6e 23 59 bc 3d a8 95 bd 91 c8 92 bd c0 4c 35 bd
       -0.013253076 -0.073074795 -0.07167161 -0.044262648
000090 5e 4c e2 3d 35 59 cc bd 86 49 fb 3d 4c e1 f3 bd
       0.11049722 -0.099779524 0.12269883 -0.11908206
0000a0 d8 d9 e6 3d ef ee a0 bc 5c b0 97 3d f9 d8 82 bd
       0.11272019 -0.019645182 0.07406685 -0.063890405
0000b0 02 2f e5 3d b2 d1 9a 3d cc 34 29 bd e6 0c 2a bd
       0.11190607 0.075595275 -0.041310117 -0.041516207
0000c0 9b e7 22 bc 9f 96 50 3d f7 8e 43 bd fb bd 98 3d
       -0.009942914 0.050924893 -0.047743764 0.07458111
0000d0 71 d9 bc 3c 76 bf 18 be 8c 5d 28 3c 41 5a af 3c
       0.023052903 -0.14916787 0.01027621 0.021405341
0000e0 7b 17 e2 bc d8 ca cf 3d 78 81 3c 3e 6b 05 9d bd
       -0.027599087 0.10146111 0.18408763 -0.07667049
0000f0 09 a7 c4 bd b7 ab a7 3d 6c de 13 be b0 ef 43 3d
       -0.09602172 0.08187049 -0.14440316 0.047836006
000100 66 42 81 bd 58 83 be 3d 1b 64 b7 3d 1b 1c 01 be
       -0.063114926 0.093023956 0.089546405 -0.12608378
000110 2d ae 69 bb 3a eb 01 3e 6c 09 11 3e 91 b6 e4 3b
       -0.0035656795 0.12687388 0.1416375 0.0069797714
000120 ef bb 19 3e ba 24 e9 3d ae 01 fa 3d ca e0 81 3d
       0.15013097 0.11383958 0.122073516 0.06341703
000130 d1 85 e5 3d 3c b9 98 bc 31 16 42 3c 58 b3 35 bd
       0.11207164 -0.018643014 0.011846111 -0.04436049
000140 69 07 71 3a 0d 27 b6 bd 71 9f ae 3d 24 20 15 be
       0.00091945246 -0.08894167 0.08526505 -0.14563042
000150 f0 61 f9 bd cf b9 79 3d d3 09 5e 3d bd 7f 8f 3d
       -0.12176883 0.060968217 0.054208588 0.07006786
000160 0b 29 a8 3c ad f2 c9 bd 42 0c f6 bd 6e 3e 90 bd
       0.020527383 -0.0986074 -0.12014057 -0.070431575
000170 a6 40 a9 3d 71 8e d9 bb 48 66 e5 3d 66 bb 08 be
       0.08264284 -0.006639295 0.11201149 -0.13352737
000180 37 d5 8b bb f9 99 e3 3d 4d 3d 10 bb ae 85 fd 3c
       -0.0042673605 0.11113352 -0.0022009194 0.030947533
000190 35 76 18 3d 5a 7e 03 be dc 63 bc bd 57 84 fe 3b
       0.037222106 -0.12841168 -0.09198734 0.007767241
0001a0 96 23 89 3d 30 51 95 bd 0d cd a3 bd 7b de c6 3c
       0.066962406 -0.07290876 -0.07998095 0.024276009
0001b0 7d 6c 9c bd c0 52 e3 bc e6 a5 9f bc d5 79 65 3d
       -0.0763788 -0.02774942 -0.019488286 0.05602439
0001c0 2e 25 6e 3d 08 d6 4d bd c9 34 87 3d 49 cb 4a bd
       0.058140926 -0.050252944 0.06601865 -0.049510274
0001d0 96 e7 12 be 09 e6 dd bc 87 37 6a 3d 2b 61 95 bc
       -0.14346156 -0.027087228 0.05718186 -0.01823481
0001e0 96 ed 02 be 0a 2e b1 bc 97 02 26 3d 34 92 9c 3b
       -0.12785944 -0.021628398 0.040529814 0.004778171
0001f0 e2 8b c3 bd 67 72 f7 bb 0d 23 84 bd 45 6d ff bd
       -0.09548165 -0.0075514796 -0.06451998 -0.124720134
000200 ba dd 90 bd 6a a0 b5 3d b3 92 07 3e ea ff a2 bd
       -0.07073541 0.08868487 0.13239555 -0.07958968
000210 c3 9a 1a 3e 15 e9 60 bd 77 e6 50 3d 8d 24 8f bd
       0.150981 -0.054909784 0.05100104 -0.069893934
000220 80 df 61 bb c2 0f ad 3d 73 4d e1 3d 4c 3b 0b 3d
       -0.0034465492 0.08450271 0.110011004 0.033992097
000230 19 6b 0b bd 6f d9 f6 bd b8 b7 36 39 18 e9 10 be
       -0.034037683 -0.12053191 0.00017425313 -0.14151418
000240 e4 72 09 bd 6d 0a c9 3d 10 5b 12 3e 8b f9 1a 3e
       -0.033556834 0.09816442 0.1429255 0.15134256
000250 1f 2f 87 bd e4 34 0c 3d f1 f5 e1 bd a3 73 c9 3d
       -0.066007845 0.034230128 -0.11033238 0.09836509
000260 e8 2f f8 bd 4b 49 e9 bc 25 6c 56 3d 6f d9 d2 bd
       -0.121185124 -0.028477332 0.05234923 -0.102953784
000270 41 e9 48 bd 3f cc 9f bc 1a ca 3a 3d eb 55 cc bc
       -0.049050573 -0.019506572 0.045602895 -0.024943313
000280 59 d8 85 bd 44 80 93 bd 7a 17 61 bd ab 5a 75 3d
       -0.06535406 -0.07202199 -0.05495403 0.05990092
000290 0e 44 fb 3c 7b 4c e5 3d 65 15 34 bd ad 37 b1 bd
       0.0306721 0.11196228 -0.043965716 -0.086531974
0002a0 44 33 f6 3d 62 14 f4 3d 3b 70 82 bd 41 ca 0b 3e
       0.12021497 0.1191795 -0.063690625 0.13651372
0002b0 3a ae e6 3d e4 55 06 3c 89 85 df bd f2 8a 5d 3b
       0.112637 0.008199189 -0.10914142 0.0033804742
0002c0 3a c8 d6 bc 64 e2 22 3d 2b 9d 8b bd 09 c1 ea 3d
       -0.026218522 0.039766684 -0.06817087 0.114626
0002d0 93 7f 05 be 65 46 6b bd 5a 56 04 3e 1f a9 46 bc
       -0.13036947 -0.05744018 0.12923566 -0.012125283
0002e0 cc f0 84 3c 06 e6 fe bd f4 2e 99 3d d2 c3 cd 3d
       0.016228102 -0.12446217 0.07479659 0.100471154
0002f0 52 e0 c6 39 42 ea 01 3e db e0 86 bd 28 eb b9 bd
       0.00037932635 0.12687019 -0.065858565 -0.090780556
000300 ce 8a 87 3d 6a 6a bb bd b0 35 f3 bd 95 9a 6a 3d
       0.06618272 -0.09151156 -0.118754745 0.057276327
000310 c0 ed 1c 3e 09 87 fe 3d 27 b4 5f 3d 99 78 05 bd
       0.1532507 0.124281 0.054615166 -0.032585714
000320 f8 10 06 be eb 3b 95 bd 33 94 af 3c bf 9b 29 3d
       -0.1309241 -0.07286819 0.021432972 0.041408297
000330 23 7d be bc cc ae 60 bd 54 16 d3 3d 53 09 dc bb
       -0.02325303 -0.0548542 0.10306993 -0.0067149787
000340 ca 86 0d bc ac a1 7d bd a3 62 12 bd b8 33 ac 3d
       -0.008638093 -0.06192176 -0.0357386 0.08408302
000350 40 4e 24 3d 7c 37 e1 bc 54 b3 4b 3d a0 46 e3 bd
       0.040113688 -0.027492277 0.049731568 -0.11097455
000360 f1 88 d0 3d 08 df 25 bd 58 b9 d0 3c 2f b2 c6 bd
       0.101823695 -0.040495902 0.025479004 -0.097019546
000370 b3 f7 6c bd 07 e6 90 3b bf b0 4c bd 91 88 d1 bd
       -0.057853412 0.0044219526 -0.049973246 -0.10231126
000380 fa e7 b3 bc 32 c6 81 3a 29 37 d5 3d d5 08 4b 3d
       -0.021961201 0.0009900986 0.104109116 0.04956897
000390 4a ce d5 3c ce de 06 be 98 ff ef 3c f2 a4 7a bd
       0.026099343 -0.1317093 0.029296681 -0.06119246
0003a0 d4 79 46 3d 53 ad 48 bd f9 02 82 3d e8 3b 83 bd
       0.048456028 -0.04899342 0.06348223 -0.064079106
0003b0 80 63 bc bd 97 3b 02 3e 42 0d a8 bd b2 39 dd bb
       -0.091986656 0.12718044 -0.08205654 -0.0067512626
0003c0 e7 e5 18 3d ac 3e 56 3d 19 60 ce bb d0 94 45 bc
       0.037328627 0.052305862 -0.006298077 -0.012059405
0003d0 81 d6 08 bd 5c e5 b5 bb 92 f0 af bc e3 f8 92 3d
       -0.033407692 -0.0055510234 -0.021477018 0.071763776
0003e0 ab 6a b8 bd 63 6f ad bc 2e a9 ff bd 39 bd f2 3d
       -0.0900472 -0.021171277 -0.1248344 0.118524976
0003f0 e9 2f 15 3c 6f 35 ea bd 7f 15 a5 bd 44 4b 04 be
       0.009105661 -0.11435973 -0.08060741 -0.12919337

cnn.0.bias f4 [20]
000000 18 f8 19 be c8 e5 03 3d 44 ee 06 bd ac 28 c2 3c
       -0.15036047 0.03220156 -0.03294207 0.023701034
000010 e1 48 cf bc 9d fd 0b be 45 d5 ec bd 29 14 23 bd
       -0.025303306 -0.13670965 -0.115641154 -0.039814148
000020 73 ff d5 bd 74 ca 0c 3e 89 36 cf bd 2b 4a f1 3a
       -0.10449114 0.13749105 -0.10117824 0.0018408945
000030 bc c1 4b bd f6 24 19 bd 4b 9f d0 bc 2a 4f 16 3e
       -0.049745306 -0.037388764 -0.025466582 0.14678636
000040 6c dc 9a 3c ed ad 88 bd 13 be a2 bd 45 a1 46 bd
       0.018903933 -0.06673799 -0.0794641 -0.048493642

cnn.3.weight f4 [16, 20, 4, 4]
000000 42 35 cd 3c 9d a1 88 3c 77 c4 f3 3c b9 47 93 3c
       0.02504981 0.016678626 0.029756768 0.017978536
000010 2b ba f7 bc d8 cb c2 bc 70 ad f7 3c 19 ca 11 3d
       -0.030240139 -0.02377884 0.030234069 0.035593126
000020 ca 7e d6 3c 78 71 a1 3c 28 e3 44 bc 60 7b 2c 3d
       0.026183505 0.019707426 -0.012017049 0.042109847
000030 f6 68 c1 3a 62 30 bc 3a fc 2d 28 3d 69 68 23 3d
       0.0014756012 0.0014357681 0.04105948 0.039894495
000040 85 69 ca 3c f5 20 32 ba ad ca f0 bc 8c 89 82 bc
       0.024708519 -0.0006795072 -0.029393518 -0.015934728
000050 3d 74 20 b8 34 de 25 bc ed 81 91 3b 1a 84 0a 3d
       -3.8255228e-05 -0.010123778 0.004440537 0.033817388
000060 87 82 54 3c d2 83 b6 3c bd 63 18 3d cf 6b 0b bc
       0.012970573 0.022279654 0.037204493 -0.00850959
000070 42 d3 37 bc 89 a8 b3 3c 4d 19 93 3b 89 80 2d 3c
       -0.011219801 0.02193095 0.0044891 0.010589727
000080 b2 8e 2a bc 1d f1 21 3c 81 27 0e bd 2c d8 15 bd
       -0.010409998 0.009884146 -0.034705643 -0.03658311
000090 34 bd 03 3c 4b 16 80 b8 36 f4 db 3c 65 97 20 bd
       0.008040715 -6.107668e-05 0.026849847 -0.03920688
0000a0 bf e2 48 3d ca a3 9e bb aa 1b 8c bc 30 4f 1a bd
       0.049044367 -0.0048413025 -0.017103035 -0.037673175
0000b0 76 33 b4 3c 71 1f 11 bd 27 d5 0e bd 04 ce 12 bd
       0.021997195 -0.035430375 -0.034871247 -0.035841003
0000c0 cc 92 e7 bc 98 4b b3 bc 25 c0 d6 3c f8 5a 1f 3d
       -0.02826824 -0.021886632 0.026214669 0.038905114
0000d0 06 c9 09 bd 6f c1 db bc b0 51 a0 3c 93 69 c8 bb
       -0.033638977 -0.026825635 0.019570202 -0.006116101
0000e0 a6 ac 47 3a 0f 3b c4 bc 5e f8 1d 3d fd d6 00 3d
       0.0007616974 -0.023953943 0.03856694 0.03145503
0000f0 94 db 23 3c 8d a8 ca bc 85 5a 9b 3c 17 cb 28 bc
       0.010001082 -0.024738574 0.018964062 -0.010302327
000100 f7 17 09 bd d9 37 89 ba 9d 98 fe bc 60 7f ec bc
       -0.03347012 -0.0010468914 -0.031078631 -0.02886933
000110 b7 a1 db 3c 96 0d e3 3c 81 01 b3 bc bc fb ec 3a
       0.02681051 0.02771644 -0.021851303 0.0018080394
000120 be bc 18 bc 17 9d 08 bd 62 ac 80 bc c6 e0 28 bd
       -0.009322343 -0.033352938 -0.015707199 -0.041229986
000130 b0 c2 35 bd ef 83 15 3b c1 a9 42 bd b8 47 82 3c
       -0.04437512 0.0022814234 -0.04752517 0.015903339
000140 f1 f5 a4 3c ee 26 3a bd 7b bc c3 bc 34 a7 3f bc
       0.020136805 -0.045447282 -0.023893585 -0.011697579
000150 96 e6 31 bd bc 5c 14 bd a1 f0 5b 3c b8 c3 df 3b
       -0.043432795 -0.03622125 0.01342407 0.0068287514
000160 14 00 55 bd 62 e0 92 bc da dc a5 3c fc 6c a4 bc
       -0.052002028 -0.01792926 0.020246912 -0.020071499
000170 c5 78 ee bc eb 52 05 3a 0f ec 28 bd be b0 b8 bc
       -0.029110322 0.0005085903 -0.041240748 -0.022545215
000180 74 87 dc ba 60 1f 97 3c 74 70 02 3a 24 e2 c8 ba
       -0.0016825036 0.018447578 0.0004975863 -0.0015326184
000190 2a 3b cc 3c 44 fa bb 3c 8b 35 6e 3c d8 49 c2 3b
       0.024930555 0.022946484 0.014539133 0.005929213
0001a0 c8 14 a9 3c c3 d8 9f bc 20 3f 41 3d a2 db f9 3c
       0.020639792 -0.01951254 0.04717934 0.030500237
0001b0 36 59 fe 3c 69 2d df 3b 58 1d ab 3c 79 35 ef 3c
       0.031048398 0.0068108332 0.020888016 0.029200302
0001c0 77 fd 6c 3c db 5f 3d 3d 75 1b b6 bb 82 d4 99 3c
       0.014464728 0.046233993 -0.0055574724 0.01877809
0001d0 77 dd 97 3c 96 a2 b0 3c c7 9b b3 3b 01 66 01 3d
       0.01853822 0.021561902 0.0054812166 0.03159142
0001e0 17 98 ae 3c df d2 49 3c 5a 0d be bc 5d d7 42 3c
       0.021312756 0.012318342 -0.023199726 0.011892167
0001f0 a4 3c a3 bc 90 a2 64 bd a9 61 0a bb c7 45 37 bd
       -0.019926377 -0.055819094 -0.002111534 -0.04474428
000200 84 fe 5b 3b 9d 02 92 3c d5 e6 8c 3b c1 18 17 bd
       0.0033568451 0.017823512 0.0042999783 -0.03688884
000210 30 79 3d 3c 83 d5 b8 ba 13 3f 0e 3d ff a9 b4 bc
       0.011564538 -0.0014101717 0.03472812 -0.022053717
000220 5e e6 91 bc 54 32 c8 bc 5c 2b 8d 3b b9 fa 06 bc
       -0.017810043 -0.02443806 0.0043081474 -0.008238488
000230 d2 c0 8f 3b 02 7e f2 bc d9 ea f6 3b f6 d7 c0 3c
       0.0043869996 -0.0296011 0.0075353202 0.023540478
000240 60 93 ef 3b 64 0a 0c 3c 5e b9 a2 39 fb 30 b9 3c
       0.0073112696 0.008547399 0.00031037157 0.022606364
000250 4c 78 9c 3b a4 f8 e8 bc 76 78 d7 3c 17 4e 06 bd
       0.0047750827 -0.028438874 0.026302557 -0.032789316
000260 ca 60 0b bd 13 36 a8 3c 60 30 2a bd 6b 71 07 bc
       -0.034027852 0.020533597 -0.04155004 -0.008266787
000270 03 63 6b bc 52 a8 b0 bc 30 9f 18 bd c2 8f a4 3b
       -0.014366868 -0.021564636 -0.037261188 0.00502202
000280 0e 9a 67 3b 29 1a 7f bc 1b 8b 83 bc 06 02 f6 3c
       0.0035339626 -0.015570202 -0.016057542 0.030030262
000290 4b 32 14 bd 38 ab 21 bd 76 e6 a9 3c 3d fa 9f 3a
       -0.036180776 -0.039469928 0.020739775 0.0012205314
0002a0 cf 51 1d 3c c7 d7 01 3c 1b df f4 bc 0c cb 00 bc
       0.009602024 0.0079249805 -0.029891541 -0.00786091
0002b0 94 dc b4 3c b3 87 18 3d 52 ee a7 bc 33 c8 17 3b
       0.022077836 0.037238788 -0.020499382 0.00231601
0002c0 d3 c3 17 3d a6 d1 1b 3d 3e d1 35 3d aa c1 de 3a
       0.037051987 0.038041733 0.044389002 0.0016994972
0002d0 7d 01 c6 3c 76 ae 47 3d 72 0f 95 bc 11 af 01 3d
       0.024170632 0.048750363 -0.018195841 0.031661097
0002e0 18 e4 35 3d 3e c6 cc 3c 83 97 3c 3d 75 1d b1 3c
       0.04440698 0.024996873 0.04604293 0.021620492
0002f0 0c b2 0d 3d af ba f6 3b ea f2 19 3d 63 74 25 ba
       0.034593627 0.0075295786 0.037585177 -0.00063115935
000300 02 83 d6 3b 17 b2 12 bd 9a be cc bc 2d 57 01 bd
       0.006546379 -0.03581437 -0.02499323 -0.031577278
000310 28 c8 88 3c d2 fb 82 3b 5a 79 6a bc 5e e9 cb bc
       0.016697004 0.0039973045 -0.014311159 -0.024891552
000320 7d 1b c6 bc 6e 25 c3 3c 07 85 6c 3c d5 b7 36 bd
       -0.02418303 0.023821559 0.014436013 -0.04460891
000330 f9 ba 19 bc d6 4d e9 bc ee d5 e4 3c 19 8d 41 bb
       -0.009382957 -0.028479498 0.02793404 -0.0029533564
000340 d5 3a 87 3d 37 83 2f 3d 68 89 18 3c e8 bd 62 bb
       0.06603018 0.042849746 0.009310104 -0.0034598056
000350 5b 76 87 ba 7e 79 8a bb cb 2f 37 3c 2d 17 a5 3c
       -0.0010334955 -0.004225909 0.011180828 0.020152653
000360 74 d4 4d 3d 2c 79 d5 bb 90 86 cd 3c 55 42 51 bc
       0.05025144 -0.006514689 0.025088578 -0.012772162
000370 c3 ac d0 bb 0c b1 0f 3d 05 08 87 bc 73 a3 93 bc
       -0.006368251 0.035080954 -0.016483316 -0.018022275
000380 b0 4a 56 3b 07 06 05 bd 77 a1 b8 3a b1 ae 02 3d
       0.0032698326 -0.03247645 0.0014086206 0.03190488
000390 e0 bc 0b bd d6 dc ce 3c 48 77 30 bc 6e f4 10 3d
       -0.034115672 0.025251787 -0.010770626 0.035389356
0003a0 86 47 09 bd 9a aa 86 3c 7e f8 59 bc d3 d9 2f bc
       -0.033515476 0.016438771 -0.013303874 -0.010733086
0003b0 3e 85 0f bd 66 df 00 3c dc af e5 3c b9 d9 47 bd
       -0.03503918 0.007865762 0.028037958 -0.04879162
0003c0 ee 7c ad 3c c2 ab e3 bc 03 af fe bc 96 14 d5 bb
       0.021177735 -0.027791861 -0.031089311 -0.006502698
0003d0 9a 11 08 bd d4 61 96 3c 20 75 c7 bc 81 6b 18 bc
       -0.03321991 0.018357195 -0.024347842 -0.009302975
0003e0 f1 4a 63 bc 26 78 41 3c c8 f1 c7 3c b5 b4 18 3d
       -0.013872848 0.011808431 0.024407282 0.03728171
0003f0 7f 4d d9 bc 9f fb a4 bc 8d a1 c6 3c 2e 28 fc 3b
       -0.02652621 -0.020139514 0.024246955 0.0076952195

cnn.3.bias f4 [16]
000000 0b 9f 0b 3d 24 35 c4 3c ba 65 75 bd 1b 97 05 bd
       0.034087222 0.02395112 -0.059911467 -0.03261481
000010 01 64 17 3d a1 bf 15 bd f8 4e 95 bc 4a d4 41 bd
       0.036960606 -0.036559705 -0.018226132 -0.047321595
000020 33 f1 09 bd 31 52 02 3d a1 64 39 3c b9 e7 42 bd
       -0.03367729 0.031816665 0.011315496 -0.04758427
000030 fa f6 1b 3d 47 ce d3 bb eb 90 29 3c 95 90 01 3d
       0.038077332 -0.006463799 0.010349493 0.031632025

cnn.6.weight f4 [16, 16, 3, 3]
000000 63 e6 78 ba 67 b9 fa 3c 9c c4 c4 3c 36 80 00 3c
       -0.00094947795 0.030605985 0.024019532 0.007843068
000010 d1 df 94 3c 4b 18 20 bd 3a 51 f7 bb 14 04 e4 b8
       0.01817313 -0.039085668 -0.0075475248 -0.00010872647
000020 22 12 c3 3c 2f 1a 2e bc fb 84 1e bd 32 56 b7 3c
       0.023812357 -0.01062636 -0.03870104 0.022379968
000030 29 be 88 bc ab 10 22 3d 26 4a 98 bc 93 ce 24 3d
       -0.016692238 0.039566677 -0.018590044 0.040236067
000040 04 55 d6 3c fe 33 17 3d 61 d4 b7 bc 67 12 d6 bc
       0.026163585 0.036914818 -0.022440137 -0.026131822
000050 24 ef 24 bb 18 d9 fc 3c 4b 42 6b 3d 22 89 3e 3d
       -0.0025166953 0.030865237 0.05743627 0.0465175
000060 89 71 3e bd b2 47 b5 bc 10 c0 81 3d 81 fd dd 3b
       -0.046494994 -0.022128914 0.06335461 0.006774605
000070 9c ed 57 3d a7 3a 69 3d 43 fd b9 bc eb ab 1a 3d
       0.052716836 0.0569407 -0.022703772 0.03776161
000080 63 ed 08 3d c6 8d 56 bc cc e0 bc 3b e9 2f 2a 3d
       0.033429515 -0.013095325 0.0057641026 0.041549597
000090 30 d2 d1 bc 59 90 9c bc a3 a5 5d 3c 6a b5 49 3c
       -0.02561292 -0.0191118 0.01352826 0.012311319
0000a0 e5 84 63 3b f8 09 07 bd 64 c3 6b 3c fd b8 ca 3c
       0.0034716662 -0.03296849 0.0143898465 0.024746412
0000b0 05 82 0d 3d 43 22 fa bc 0e c7 05 bd a6 2c 04 3d
       0.034547824 -0.030533915 -0.032660536 0.032269143
0000c0 7e b4 22 3c 1e 9e d5 bc 64 ba fa bc 5e 29 ad 3b
       0.009930728 -0.026076373 -0.030606456 0.0052844724
0000d0 94 f4 a4 3c b3 c0 b2 3c b6 53 06 bd 33 2f d4 3c
       0.020136155 0.021820402 -0.032794677 0.025901413
0000e0 9c 31 65 3c ff e1 94 3d c5 f7 ca 3b 7b 2d 63 3d
       0.013988879 0.07269668 0.006194087 0.055463295
0000f0 38 6b ae bc 2b b2 32 bd db e0 c0 3c 77 58 ac bc
       -0.02129136 -0.043626945 0.02354472 -0.021038277
000100 ff a0 2e 3d d4 92 d8 bc d6 d0 4e bb 59 ab 81 3d
       0.042634007 -0.0264372 -0.0031557581 0.0633151
000110 c0 09 2c 3d 56 36 9a bc aa f1 11 3d 94 40 e6 bb
       0.042001486 -0.018824738 0.03563086 -0.0070267413
000120 57 32 86 3b a3 5a 98 bc dd da 03 3d 8d d8 5c 3b
       0.0040953564 -0.018597906 0.032191146 0.003369841
000130 1d 80 73 3c 6a 5f e5 bc ed 1a 53 bc 94 3c 2a bd
       0.014862088 -0.027999599 -0.012884838 -0.041561678
000140 6f 21 70 bc f5 60 bb 3b a5 a7 a8 3b 2a 33 51 b9
       -0.014656409 0.0057183453 0.005146938 -0.00019950853
000150 58 80 2a 3d 32 76 1c 3c ab f3 6b 3b a5 61 cd 3c
       0.041626304 0.009549664 0.0036003392 0.025070975
000160 c7 8d 02 bc 44 e6 84 bc 99 db 4d 3c b7 39 a1 3c
       -0.007968373 -0.01622308 0.012564563 0.01968084
000170 e3 1a 58 3c 00 56 18 3c ab 55 30 3c a7 bf ad 3c
       0.013190004 0.009297848 0.010762612 0.021209551
000180 ec 6f 61 3c f0 f9 da bc 2d bb fa bc ed c5 bd bb
       0.013759594 -0.026730508 -0.03060683 -0.005791417
000190 e0 1c 22 bc c1 38 a0 3b 42 f7 e3 3b 78 45 ab bc
       -0.00989458 0.004889578 0.0069569657 -0.020907149
0001a0 54 f5 d6 bb 29 84 bf 3b b4 e2 0e 3c 8a f1 15 bd
       -0.006560007 0.005844612 0.008721042 -0.036607303
0001b0 15 52 2c 3d cc bf b1 bc c9 1d 9a 3c 6e ce 05 3d
       0.042070467 -0.021697901 0.01881303 0.03266757
0001c0 20 b4 80 3c 87 49 07 bd 9e 80 8d 3c 73 b7 0a 3d
       0.01571089 -0.033029106 0.017273244 0.033866357
0001d0 f9 56 f1 3c ea c9 93 3c 6e b8 3c 3d 21 30 ac ba
       0.029460417 0.018040616 0.046074323 -0.0013136902
0001e0 0f 6c bc 3c 4e a3 4a bd 64 e8 89 3d 3a e5 d1 bc
       0.023000745 -0.049472146 0.06733778 -0.025621999
0001f0 fe 74 2c bb 61 ee 88 3d 5b 8d 15 3b f4 f7 8e 3c
       -0.002631485 0.06686092 0.002281985 0.017452218
000200 35 8b 09 3d 74 dd 93 bb 1b b4 85 3d 5a ae 51 3d
       0.033580024 -0.0045124833 0.06528493 0.051191665
000210 b6 ac 2a bd 74 33 8e 3d 24 6c 96 3b 8f 75 da 3b
       -0.041668616 0.06943408 0.004590528 0.006666846
000220 e0 5c 96 b9 41 41 2b 3d ad 85 24 3d 7e 41 49 bd
       -0.00028679427 0.041810278 0.040166546 -0.049134724
000230 15 69 f4 bb 42 eb 17 3c 6b 1a 22 3d 27 74 3f 3d
       -0.007458816 0.009272398 0.039575975 0.04674163
000240 06 5f 9c 3b d8 db 43 bc e2 93 4d bc 50 c4 24 bd
       0.00477207 -0.01195427 -0.012547465 -0.04022628
000250 be f3 0d bd 90 3a 12 3c 9f 6c 68 bd 05 19 70 bb
       -0.03465628 0.008925095 -0.056744214 -0.0036636007
000260 65 4e e5 bc f7 20 ee b9 e4 3f 0c bc 42 11 95 3c
       -0.027991483 -0.00045419458 -0.008560155 0.018196706
000270 3c 4e fe bc 06 55 f4 bc 9c 6c 2e 3d b2 25 0b 3d
       -0.031043164 -0.029825699 0.042584047 0.033971496
000280 ff 3f 20 3d 6e d7 cb bc e5 96 58 bd 2d b4 bf 3c
       0.03912353 -0.024882998 -0.05287828 0.023401344
000290 50 e6 ea bb b8 8c 3b 3d 53 ec 47 bd f1 e3 e5 3c
       -0.0071685687 0.045788497 -0.04880936 0.028062792
0002a0 65 31 50 bc 03 00 8e bc 72 4c b1 3c 6d eb 80 3d
       -0.012707089 -0.01733399 0.021642897 0.06294904
0002b0 c3 f1 bd 3c 7e dc 89 3c 98 a2 3a 3c fd a0 c8 3c
       0.02318657 0.016828772 0.011391304 0.024490828
0002c0 ac 0f 24 3d ac 28 ee bc 41 19 7c bb 56 84 28 bd
       0.04005401 -0.029072128 -0.00384672 -0.04114183
0002d0 1a c8 99 bc ab a6 d9 3c 0d 27 dc bc 7f d3 e8 3c
       -0.018772174 0.026568731 -0.02687409 0.028421162
0002e0 d9 ae 15 3d b0 5c ef ba 6a ea 92 3c 7f 10 c4 3c
       0.0365437 -0.0018261876 0.017934043 0.023933647
0002f0 70 fb 3a 3d a8 3d 02 bd 67 3a 08 3c 9c de 42 bd
       0.045649946 -0.03179708 0.008314705 -0.047575578
000300 49 dc b8 3c e4 0f 21 3d 70 8f 0f bd 96 f8 2f 3d
       0.022565978 0.039321795 -0.035048902 0.04296168
000310 ee ff b3 bc 70 b8 7b 3c 04 1c a7 bc b7 3c ab 3c
       -0.021972623 0.015363798 -0.020399101 0.020902975
000320 75 1d cc 3c dc 9f 51 3d a1 85 6f bb 05 2c 74 3a
       0.02491639 0.051177844 -0.0036548155 0.0009314421
000330 89 ab 85 3d 31 9a 84 3d ec 31 09 3d cd 56 3d 3d
       0.06526858 0.06474722 0.033494875 0.046225358
000340 e9 0f 1a bd 09 25 8d 3d 59 98 b1 bc f8 b7 19 3d
       -0.03761283 0.068918295 -0.02167909 0.037528962
000350 dd 5f e6 bc d7 87 e8 3c 34 f0 d4 3c 64 89 f7 bc
       -0.028121883 0.028385086 0.025993444 -0.03021688
000360 bc 6c 6d bc 21 27 4f bd 43 69 bf bc bc 22 1d bd
       -0.014491256 -0.050574426 -0.023365622 -0.038363203
000370 19 4e af 3c a3 01 08 3d ab 3e 3e bd cb 7b 31 3d
       0.021399545 0.033204686 -0.046446484 0.04333095
000380 be 0d 05 bd a2 95 2e 3d 8c 8e d3 bb 6f 03 30 3d
       -0.03248381 0.04262317 -0.006456202 0.042972025
000390 77 1a 45 3c 67 78 0c bb 3f 96 d1 3b b3 87 41 bc
       0.0120302355 -0.002143407 0.0063960846 -0.011812138
0003a0 4c 60 89 bc c1 ef 93 3b 20 a7 a0 3b 48 cf 4c 3b
       -0.01676955 0.004514665 0.0049027354 0.003125148
0003b0 49 0a 82 3c 1c c0 25 3c e5 4a 99 3c 52 0e b5 bc
       0.015874045 0.010116603 0.01871247 -0.022101555
0003c0 67 fb 94 3c cd 4f 0b bc 23 89 c7 3c c2 57 10 38
       0.018186284 -0.008502913 0.024357384 3.4414006e-05
0003d0 6d 03 08 bd 5c ac 70 bc 1e ba 64 3c d7 db b1 bb
       -0.033206392 -0.014689531 0.013960389 -0.0054278183
0003e0 cc 6d de ba 3a 1f 2d bc b7 f7 5c 3c 75 c3 ff b7
       -0.0016969978 -0.010566527 0.013486794 -3.0489386e-05
0003f0 3a d9 7e 3d 2a 5e af bb db 54 36 3d 06 f0 25 3d
       0.062218882 -0.0053518014 0.04451452 0.040512107

cnn.6.bias f4 [16]
000000 55 72 6c bc 92 b2 f3 bb 62 0a 1e bc ce 4c c3 ba
       -0.014431556 -0.0074370587 -0.00964603 -0.0014900209
000010 37 06 5e bd 72 12 85 3d 18 5c 2c 3d 52 51 82 3d
       -0.054205146 0.06497659 0.042080015 0.06363167
000020 64 cf b6 3c 1d c9 12 3d 9f 04 e4 3b 3a d7 f2 3c
       0.022315688 0.035836328 0.0069585587 0.029643644
000030 41 9e a2 bb d0 22 9e 3d 81 9e 7d 3c c5 9d a1 3b
       -0.004962713 0.07721484 0.015479685 0.0049321377

fully_connected.0.weight f4 [144]
000000 2b d6 4e 3f 17 f8 4e 3f e7 b4 4d 3f 37 58 4e 3f
       0.80795544 0.80847305 0.8035416 0.80603355
000010 79 a5 4e 3f 61 76 4d 3f aa d7 4e 3f 61 95 4d 3f
       0.8072124 0.80258757 0.8079783 0.8030606
000020 e8 b2 4e 3f 40 83 4d 3f d1 87 4c 3f b1 71 4d 3f
       0.8074174 0.80278397 0.7989474 0.80251604
000030 a2 b3 4d 3f 6f 1a 4e 3f 75 42 4d 3f 09 db 4d 3f
       0.8035222 0.80509084 0.8017953 0.80412346
000040 c7 d1 4e 3f 77 88 4d 3f 91 59 4d 3f 9b 59 4d 3f
       0.80788845 0.80286354 0.8021479 0.8021485
000050 9b 59 4d 3f 85 59 4d 3f 93 59 4d 3f 0e 5d 4d 3f
       0.8021485 0.8021472 0.80214804 0.80220115
000060 53 59 4d 3f 95 59 4d 3f 95 59 4d 3f 2c 45 4f 3f
       0.8021442 0.80214816 0.80214816 0.8096492
000070 8f 36 4e 3f 70 25 4d 3f 74 56 4e 3f 3d 73 4d 3f
       0.80552 0.8013525 0.80600667 0.80253965
000080 59 9a 4d 3f a6 7d 4c 3f ed 75 4f 3f ca 39 4e 3f
       0.8031364 0.79879224 0.81039315 0.8055693
000090 8b ff 4d 3f ab b6 4e 3f 15 53 4e 3f 3b fd 4e 3f
       0.8046805 0.8074748 0.80595523 0.8085515
0000a0 b9 52 4e 3f ff 13 4f 3f a2 8d 4f 3f 38 57 4f 3f
       0.80594975 0.80889887 0.8107549 0.8099246
0000b0 d3 2f 4f 3f b1 1c 4b 3f 1d 37 4d 3f 37 97 4a 3f
       0.8093235 0.79340655 0.8016222 0.79136986
0000c0 03 a6 49 3f 15 c9 4c 3f 4b e4 4b 3f 56 ce 4d 3f
       0.7876894 0.79994327 0.7964522 0.8039297
0000d0 76 9e 4c 3f d2 c7 50 3f 27 14 4d 3f 20 86 4e 3f
       0.7992929 0.815549 0.80108875 0.8067341
0000e0 02 f8 4c 3f ce 14 4d 3f 23 fd 4d 3f 0f 0c 4f 3f
       0.8006593 0.8010987 0.8046438 0.80877775
0000f0 f1 5d 4d 3f 5c a8 4d 3f 82 62 4d 3f 8e c1 4f 3f
       0.8022147 0.8033502 0.80228436 0.81154716
000100 82 2f 4f 3f 9a 2f 50 3f 61 71 4e 3f f7 4b 4f 3f
       0.80931866 0.81322634 0.8064175 0.8097529
000110 3b f4 4d 3f 34 c2 4e 3f 37 bc 4e 3f d6 df 4e 3f
       0.8045079 0.8076508 0.80755943 0.80810297
000120 e4 e5 4e 3f 84 8b 4d 3f 70 5c 4e 3f 55 7a 4d 3f
       0.80819535 0.8029101 0.806098 0.8026479
000130 d8 85 4f 3f df f3 4d 3f 0f d0 4c 3f 2e cd 4e 3f
       0.81063604 0.8045024 0.8000497 0.8078183
000140 ec e0 4e 3f 33 25 50 3f 85 f9 4e 3f ec 8c 4e 3f
       0.80811954 0.8130676 0.80849487 0.8068378
000150 d8 45 4e 3f b9 37 4e 3f 2f 98 4b 3f 5d 3a 4b 3f
       0.80575323 0.80553776 0.7952909 0.7938593
000160 21 ae 4d 3f 96 8e 4f 3f af de 4d 3f 0f ab 4d 3f
       0.80343825 0.81076944 0.80417913 0.8033914
000170 8b f0 4c 3f fc fd 4d 3f 94 4c 4e 3f c1 0e 4e 3f
       0.8005454 0.80465674 0.805856 0.8049126
000180 e6 0c 4f 3f 8f 35 4d 3f f3 df 4d 3f e3 ec 4d 3f
       0.80879056 0.8015985 0.80419844 0.80439585
000190 b6 cf 4e 3f 2e b9 4e 3f 20 98 4e 3f 51 10 4d 3f
       0.8078569 0.8075131 0.80700874 0.8010302
0001a0 c0 b1 4e 3f 1c c6 4e 3f 5e 41 4e 3f 04 dd 4e 3f
       0.80739975 0.8077104 0.8056849 0.80805993
0001b0 54 f6 4e 3f 79 03 50 3f eb 71 4f 3f 06 31 4e 3f
       0.80844617 0.812553 0.810332 0.80543554
0001c0 db 66 4f 3f 41 d5 4f 3f 87 23 4f 3f 04 0b 4e 3f
       0.8101632 0.81184775 0.80913585 0.8048556
0001d0 94 fb 4e 3f 3f d6 4b 3f 0d ad 4b 3f 17 ea 4a 3f
       0.8085263 0.7962379 0.7956093 0.7926344
0001e0 dd b0 4a 3f 9e 30 4e 3f 28 68 4c 3f 00 96 4f 3f
       0.7917612 0.80542934 0.7984643 0.81088257
0001f0 15 b2 4a 3f 9e f1 49 3f ea 75 4e 3f 55 18 4e 3f
       0.7917798 0.78884304 0.8064867 0.8050588
000200 b9 aa 4e 3f f2 fe 4e 3f d7 ab 4e 3f 4e 2b 4d 3f
       0.8072925 0.80857766 0.80730957 0.801442
000210 87 a0 4d 3f 25 ca 4d 3f 90 95 4e 3f 96 85 4e 3f
       0.8032307 0.80386573 0.80696964 0.80672586
000220 87 98 4e 3f e6 b5 4e 3f bd 5f 4f 3f 84 0d 4e 3f
       0.8070149 0.80746305 0.8100546 0.80489373
000230 a9 fd 4d 3f 3b 5b 4e 3f ed c1 4d 3f 91 a8 4e 3f
       0.8046518 0.80607957 0.8037403 0.8072596

fully_connected.0.bias f4 [144]
000000 44 d4 34 3a 58 44 87 bb 85 49 a9 3b 6e 63 0c 3a
       0.0006898085 -0.0041280203 0.005166235 0.00053553923
000010 4a df e8 bb 70 56 b6 3a 31 d0 19 b9 e0 43 59 3b
       -0.0071066963 0.0013911258 -0.00014668774 0.003315203
000020 c8 e7 b5 3b 98 3f 95 3b 94 45 d6 ba 9e cc 6e 3c
       0.005551312 0.0045547 -0.001634764 0.014575152
000030 74 a6 76 3b a6 f2 31 ba 74 6d 5c b9 fd fc 19 3c
       0.0037635835 -0.00067881716 -0.0002102161 0.009398696
000040 20 82 4b 3c 41 48 2d 3b af 16 9a 39 89 d2 2a ba
       0.012421161 0.0026440772 0.0002939007 -0.00065163575
000050 be db 42 3b 12 fe 13 39 1d 8d e2 b9 ce f4 16 3a
       0.0029733027 0.00014113661 -0.00043211217 0.00057585246
000060 f6 f4 5f 38 fa cf 22 b9 b4 12 00 39 56 20 3d 3b
       5.339548e-05 -0.00015527001 0.00012213999 0.0028858385
000070 7f 32 09 3c cc 12 9b 3b 58 ac 30 ba 3a 54 b0 3b
       0.008373856 0.0047324654 -0.00067395484 0.0053811343
000080 a2 0b b7 3b 5f ba 4d 3c 18 d9 63 ba c1 9f 9d 3b
       0.0055861035 0.012556641 -0.0008691712 0.004810304
000090 7b cd 02 ba 71 2d b9 ba 11 68 59 3b bf 67 d7 3b
       -0.00049897254 -0.0014127922 0.00331736 0.006573647
0000a0 3a fe 13 3c 68 c9 f5 ba 19 ba 83 3b f3 6f c6 3b
       0.00903278 -0.001875204 0.0040199873 0.006055826
0000b0 c0 19 f0 3a fb 92 a3 bb 98 54 fd bb bb 3e 08 bc
       0.0018318221 -0.0049918867 -0.0077310316 -0.008315737
0000c0 7d c6 85 bc 05 d1 06 bc 09 83 30 bc 03 95 2f bb
       -0.016329998 -0.008228545 -0.010773429 -0.0026791699
0000d0 e2 e4 d9 bb c4 0c 40 bb d6 a8 c2 3b 06 34 1a bb
       -0.0066495994 -0.0029304484 0.005940537 -0.0023529544
0000e0 b7 a8 da 3b 42 77 3e 3b af 67 83 3b 34 70 83 bb
       0.0066729444 0.0029062782 0.004010163 -0.0040111784
0000f0 a0 04 2d 3b 3a f2 0a 3c c5 42 f1 3b 77 f6 1d 3b
       0.0026400462 0.008480603 0.007362696 0.0024103203
000100 8b 9b eb 38 e7 ad 70 3a f7 36 98 bb d2 1b 4c bb
       0.00011234645 0.0009181187 -0.004645224 -0.0031144512
000110 52 58 08 3a 28 e6 92 ba 30 34 21 3b 7e e1 23 bb
       0.0005201149 -0.0011207508 0.0024597757 -0.002500623
000120 d8 78 e4 3a 9b b7 92 3b 32 3b b8 3b 07 03 1b 3b
       0.0017431034 0.004477454 0.005622291 0.0023652927
000130 04 59 e1 3b d0 44 a6 3b f9 82 4a 3c f6 fa 0b 3c
       0.0068770666 0.005074121 0.012360328 0.0085437205
000140 bf 77 8a 3b ec c7 4c ba 46 77 b5 3b db 87 77 3b
       0.0042257006 -0.0007811773 0.0055379 0.0037770185
000150 ed 3a 8b 3a 15 56 a9 3a c5 22 c5 3b ca 60 be 3a
       0.001062242 0.0012919331 0.0060161077 0.0014524695
000160 2d 76 17 3a df f0 23 ba c9 38 4c ba ac 77 cd 3a
       0.00057778024 -0.0006253849 -0.0007790444 0.0015675924
000170 43 0d af 3b 6c aa 19 3c 2b 55 2e 3c 4f 92 bd 3b
       0.005342157 0.009379011 0.010640423 0.0057852636
000180 4d a4 92 bb 9b 63 dd 3b c8 2f 19 3c a6 09 0f 3c
       -0.0044751526 0.0067562587 0.009349771 0.008730328
000190 23 2c b1 3b f1 e0 cd 3b 8e f1 70 3b 38 e6 b4 3b
       0.005406873 0.0062829186 0.0036765072 0.0055206083
0001a0 b5 e0 d3 3b 58 a8 3f 3c 3f 64 18 3c 1e 8c fb 3b
       0.006465996 0.011697851 0.009301244 0.0076766154
0001b0 ca f6 37 3b 97 52 c6 3b 13 7f a1 3b 22 2c ba 3b
       0.0028070682 0.006052326 0.0049284785 0.0056815306
0001c0 06 e2 00 3b 06 52 57 bb ed 9a ea 3b 49 ba e9 ba
       0.001966597 -0.0032855286 0.007159582 -0.0017832007
0001d0 00 95 6c 3b 95 24 40 bb 87 e8 a9 bb c7 78 6c bc
       0.0036099553 -0.002931868 -0.00518519 -0.014433092
0001e0 4a 10 1a bc b1 b4 95 ba 50 47 7a bb 0a c0 db b8
       -0.009403298 -0.0011421648 -0.0038189478 -0.00010478504
0001f0 82 6e 20 bc 5b 6d 16 bc 4b fc 15 3b 4d 65 af 3b
       -0.009791972 -0.009181346 0.0022885974 0.005352652
000200 7a 4c c5 3b b4 8e 25 3c 7a 46 63 3b 08 bf 28 3b
       0.0060210796 0.010104824 0.0034679458 0.002574863
000210 b7 bf a4 3b 77 75 d9 3b ff ef b2 3b e5 47 c0 3b
       0.005027737 0.0066363174 0.0054607387 0.0058679455
000220 83 d1 9c 3b 3f 01 5e 3b f5 f2 85 3b da 7c 33 3b
       0.004785718 0.0033875254 0.0040878006 0.002738765
000230 70 9d e6 ba 70 47 67 ba 0c 97 94 39 8c d3 fd 3a
       -0.0017594527 -0.00088225957 0.00028341298 0.0019365414

fully_connected.0.running_mean f4 [144]
000000 60 fe 3b 3e ba 62 3d 3e c5 3a 3d 3e b0 b1 40 3e
       0.18358755 0.18494692 0.1847945 0.18817782
000010 9d 8f 40 3e 19 75 40 3e 2b bb 3e 3e 97 1e 3f 3e
       0.18804784 0.18794669 0.18626086 0.18664013
000020 b3 77 3f 3e 63 38 a9 3d e9 8f a4 3d 46 95 a7 3d
       0.18698005 0.08262708 0.08035261 0.081827685
000030 09 16 a8 3d 10 e6 a8 3d b7 94 a6 3d 14 5c ab 3d
       0.08207328 0.08247006 0.08133834 0.08367172
000040 f6 1f a8 3d 1b 8e ac 3d 71 a1 f9 1f af c0 19 20
       0.08209221 0.08425542 1.05722684e-19 1.3023358e-19
000050 91 bf f5 1f f4 81 05 20 b0 a3 ba 1f c8 ea cc 1f
       1.04078456e-19 1.1308536e-19 7.904486e-20 8.6785774e-20
000060 36 f7 f6 1f 26 3e a8 1f 74 ba c6 1f 9d 1e 78 3d
       1.0459403e-19 7.1253584e-20 8.416472e-20 0.06057607
000070 9d c8 7a 3d 88 c1 7b 3d 87 10 7f 3d 67 99 7a 3d
       0.061226476 0.061463863 0.06227162 0.061181452
000080 7d 74 7a 3d 07 3b 7f 3d b0 85 7e 3d 08 41 7c 3d
       0.061146248 0.062312152 0.062139213 0.061585456
000090 35 24 34 3e 0d 8f 31 3e c3 06 34 3e 6d 17 36 3e
       0.17591937 0.17339726 0.17580704 0.17782374
0000a0 51 a0 38 3e 36 8c 36 3e 73 7f 33 3e e5 42 33 3e
       0.18029906 0.17826924 0.17529087 0.17505987
0000b0 cc d0 33 3e 71 86 2b 3c 94 ca 2b 3c 2f 40 2c 3c
       0.17560118 0.010469065 0.01048531 0.010513349
0000c0 f2 2d 2b 3c 8b f9 2a 3c d1 20 2b 3c 0f 9c 2b 3c
       0.010447966 0.010435472 0.010444836 0.010474219
0000d0 11 e1 2b 3c 66 48 2c 3c 60 7f 93 3d 28 b8 93 3d
       0.010490672 0.010515308 0.07202029 0.072128594
0000e0 04 13 94 3d fb bd 95 3d 16 89 96 3d 0c 7a 96 3d
       0.072301894 0.073116265 0.07350366 0.07347497
0000f0 85 da 98 3d be f3 98 3d c4 c0 97 3d bd f9 8e 3d
       0.07463554 0.07468365 0.07409814 0.069812275
000100 1c 94 8e 3d cf 93 8f 3d a0 fa 8e 3d 9c ef 8f 3d
       0.06961843 0.07010614 0.06981397 0.07028124
000110 b3 56 8f 3d 32 d0 8e 3d 08 b3 8d 3d 9e 9b 8e 3d
       0.069989584 0.06973304 0.06918913 0.069632754
000120 1b e4 9c 3d 57 2b 9a 3d e7 ea 9b 3d f4 2b 9b 3d
       0.07660695 0.07527798 0.076131634 0.07576743
000130 45 99 9d 3d eb 09 9a 3d 1a 27 9e 3d 31 c6 9a 3d
       0.076952495 0.07521423 0.07722302 0.07557333
000140 d5 4e 9e 3d 56 7a 99 3d 3e a3 99 3d 57 62 9a 3d
       0.0772988 0.07494037 0.07501839 0.07538288
000150 2d 26 9b 3d 4b fe 99 3d 5d 6c 9a 3d f8 08 99 3d
       0.07575641 0.07519206 0.075402 0.07472414
000160 8c f7 98 3d cf 01 97 3d 20 20 b1 3d 1f a7 ae 3d
       0.07469091 0.07373392 0.086487055 0.085279696
000170 ee 70 b0 3d ba cc af 3d 8b 71 b1 3d 4f 9d ae 3d
       0.0861529 0.0858397 0.08664235 0.08526098
000180 84 86 b3 3d 84 37 af 3d 44 09 b3 3d 24 a0 2a 3e
       0.08765891 0.08555511 0.08742002 0.16662651
000190 79 16 2b 3e 1e ff 29 3e e1 35 2c 3e b4 97 2a 3e
       0.16707791 0.16601226 0.16817428 0.16659433
0001a0 81 36 2a 3e dc f3 2b 3e a6 0d 2d 3e 26 af 2d 3e
       0.16622354 0.16792244 0.16899738 0.16961345
0001b0 25 05 19 3e ea 0a 19 3e 6c b3 19 3e a1 fe 18 3e
       0.14943369 0.1494557 0.1500985 0.14940883
0001c0 3f 25 1a 3e 44 98 19 3e e0 77 1c 3e 52 63 1c 3e
       0.15053271 0.14999491 0.15280104 0.15272263
0001d0 97 b4 1c 3e 3d 33 1c 3c 2e 3a 1c 3c c5 69 1d 3c
       0.15303265 0.0095337005 0.0095353555 0.009607737
0001e0 16 2d 1d 3c 46 6e 1d 3c c3 5b 1d 3c 9e a4 1d 3c
       0.009593269 0.009608811 0.009604397 0.009621767
0001f0 c5 8a 1d 3c 7d e7 1d 3c 4c 9d a5 3d ca a0 a3 3d
       0.009615605 0.009637711 0.080866426 0.079896525
000200 15 85 a5 3d 34 b4 a5 3d d1 76 aa 3d b4 6f a6 3d
       0.08082024 0.08091012 0.08323444 0.081267744
000210 76 23 a9 3d 27 dd a6 3d 6f a1 a8 3d 62 55 ff 3d
       0.08258717 0.0814765 0.08233916 0.12467457
000220 95 e2 ff 3d 8a d6 fe 3d 15 e9 03 3e 05 62 04 3e
       0.12494389 0.12443264 0.12881882 0.12928016
000230 cd 05 04 3e b4 1e 06 3e 1f de 05 3e c1 c4 05 3e
       0.12892838 0.1309765 0.13073014 0.13063337

fully_connected.0.running_var f4 [144]
000000 cf ad f3 3c 9e a4 f8 3c 6b f2 f6 3c 1a ff 03 3d
       0.029745964 0.030351933 0.03014489 0.032225706
000010 da c2 02 3d f1 d3 02 3d 3d 58 02 3d 9e 21 03 3d
       0.031924106 0.031940404 0.03182243 0.03201448
000020 fd 9e 03 3d b2 fb 3c 3c 43 52 34 3c c3 b6 3a 3c
       0.032134045 0.011534618 0.011005941 0.011396113
000030 f2 66 3a 3c 50 ee 3d 3c 9b ab 38 3c ae 91 44 3c
       0.011377083 0.011592463 0.011271383 0.011997623
000040 6e 32 3d 3c 8b 0c 43 3c 3d bd fe 1c 2f fa 12 1d
       0.011547668 0.011904846 1.6857227e-21 1.945228e-21
000050 ce a1 af 1c 07 59 27 1d 26 39 8f 1c 3f f6 ce 1c
       1.1622354e-21 2.2148292e-21 9.477719e-22 1.369559e-21
000060 3a e8 c5 1c 01 17 33 1c 21 11 74 1c 2b c9 03 3c
       1.3096396e-21 5.9255864e-22 8.0754966e-22 0.008043568
000070 96 30 06 3c e3 44 09 3c ce 44 0b 3c 2e ed 05 3c
       0.008190295 0.00837824 0.008500291 0.008174224
000080 7f 7f 04 3c 0b 4b 06 3c e1 35 05 3c 52 7e 02 3c
       0.008087038 0.008196603 0.0081305215 0.007964687
000090 f0 db 3a 3d 51 a6 37 3d d4 73 3b 3d 6e 88 41 3d
       0.045619905 0.044836346 0.04576476 0.04724925
0000a0 17 23 47 3d c5 20 43 3d 13 0a 3f 3d 1b 38 3e 3d
       0.04861745 0.047638673 0.046640467 0.046440225
0000b0 13 00 40 3d 0c 1d 65 39 8c 0a 65 39 cf 61 67 39
       0.04687507 0.00021849963 0.00021843071 0.00022066313
0000c0 c6 43 66 39 50 0c 66 39 49 5b 65 39 23 6e 66 39
       0.00021959757 0.00021939096 0.00021873148 0.00021975538
0000d0 3e 5b 66 39 e8 9c 65 39 62 21 ec 3b 41 ec e9 3b
       0.000219685 0.00021897594 0.007206128 0.0071387594
0000e0 3f 0f ed 3b bf 92 ef 3b fe 58 f2 3b 15 27 f4 3b
       0.0072344835 0.0073111947 0.0073958626 0.007450948
0000f0 2e 33 f6 3b 7d b5 f4 3b 44 60 f0 3b bd bd 45 3b
       0.0075134253 0.007467924 0.0073356945 0.0030172907
000100 f1 33 41 3b c3 1d 4a 3b 6c ee 41 3b 7f 2d 4b 3b
       0.0029480422 0.0030840493 0.0029591573 0.003100246
000110 0d 9e 47 3b 7e 44 44 3b d4 ac 41 3b 77 cc 46 3b
       0.0030459196 0.002994805 0.0029552476 0.0030334273
000120 39 0b 14 3c b1 eb 0e 3c bb 2d 13 3c ce e6 11 3c
       0.009035879 0.008723185 0.008983071 0.008905126
000130 ca 8a 14 3c 13 61 0c 3c f2 0a 13 3c 88 f5 0e 3c
       0.009066293 0.008568066 0.008974778 0.008725531
000140 77 cc 14 3c c7 f4 81 3b f9 b3 7d 3b 95 20 82 3b
       0.009081951 0.0039659473 0.0038712008 0.0039711692
000150 f8 a2 85 3b 82 1c 81 3b bb 1c 83 3b 59 f8 80 3b
       0.0040782653 0.003940166 0.0040012277 0.0039358553
000160 83 4f 7e 3b 5a f7 77 3b 50 62 5c 3c 10 08 58 3c
       0.0038804717 0.0037836642 0.013451174 0.013185516
000170 ad dc 5d 3c 11 ce 55 3c 1f 34 5b 3c 2d 74 51 3c
       0.013541383 0.013049618 0.013379126 0.012784046
000180 b1 7a 5d 3c 00 d7 53 3c 88 d9 58 3c 10 9b 91 3c
       0.013518021 0.012929678 0.013235457 0.017774135
000190 ae 10 93 3c 64 93 90 3c 81 c4 96 3c ac 8b 93 3c
       0.01795229 0.017648406 0.018404247 0.018010937
0001a0 e5 b7 94 3c 23 27 9a 3c 2c 96 9e 3c f0 1d a0 3c
       0.018154094 0.01881749 0.019358717 0.019545525
0001b0 0a 17 bb 3c 65 b9 b9 3c b9 43 bb 3c 47 0c bd 3c
       0.022838134 0.02267141 0.022859441 0.023077143
0001c0 df e8 c0 3c 46 eb bd 3c 3c 2c c9 3c bb 21 c9 3c
       0.023548542 0.023183476 0.024557225 0.024552217
0001d0 10 3a cb 3c 66 a6 40 39 c2 b7 40 39 c0 97 43 39
       0.02480796 0.00018372535 0.00018379002 0.0001865318
0001e0 13 0d 43 39 54 7f 43 39 85 4c 43 39 28 09 44 39
       0.0001860152 0.00018644083 0.00018625155 0.00018695428
0001f0 9b e5 43 39 cf f6 44 39 cb 33 5a 3c ca 92 50 3c
       0.00018682184 0.0001878396 0.0133180125 0.01273031
000200 63 8b 57 3c 29 ed 4f 3c 2d 4d 5c 3c 01 82 53 3c
       0.013155791 0.012690821 0.0134461345 0.012909413
000210 06 50 5a 3c d1 58 50 3c 1c 73 59 3c ef 49 ea 3c
       0.013324743 0.012716488 0.013272073 0.028599707
000220 77 ef eb 3c 96 56 ea 3c 3a 4d f9 3c d8 ee fc 3c
       0.02880071 0.02860574 0.030432332 0.030875608
000230 c0 88 fd 3c 9a 7d 01 3d a9 29 01 3d 6d c4 fe 3c
       0.030948997 0.031613924 0.03153387 0.031099522

fully_connected.1.weight f4 [132, 144]
000000 7d 13 f5 39 1c 4c 58 bc ce 25 54 bc a9 a9 a7 3c
       0.0004674456 -0.01320174 -0.012948466 0.020466642
000010 bf 53 26 bc da 58 d4 3b 54 e0 bc 3c fb 9a 00 bc
       -0.010151803 0.0064803185 0.023056187 -0.00784945
000020 29 2e 95 3c db 01 f5 bc 47 93 88 bc d9 63 e0 3b
       0.018210487 -0.029908111 -0.01667179 0.0068478403
000030 be d0 95 3c 5c 42 9f 3c 85 89 e4 bc 21 32 cd bc
       0.018288013 0.019440822 -0.027897606 -0.025048317
000040 e9 e3 d3 bc fb 56 16 3c 4d e2 35 b6 da 02 74 37
       -0.025865512 0.009176011 -2.7102826e-06 1.4544197e-05
000050 91 84 fe b7 ad 9e 05 38 77 8f dd b8 33 ca 3b 37
       -3.034089e-05 3.185745e-05 -0.000105648236 1.1193147e-05
000060 b5 56 d1 b5 7b 99 12 b6 19 bd a3 b3 d8 66 92 bc
       -1.5596949e-06 -2.1845033e-06 -7.624676e-08 -0.017871305
000070 d7 19 cb bc 80 c2 77 3b a6 55 40 3c 0a 32 c9 3b
       -0.024792595 0.003780514 0.01173917 0.0061399983
000080 d8 25 33 bc fc 92 dc 3c 90 45 06 3d 5c 62 04 3d
       -0.010934316 0.026925556 0.032781184 0.032320365
000090 57 da 09 bb f3 89 82 3b a8 ed bc bb 2d ec 66 3c
       -0.0021034682 0.00398373 -0.0057656355 0.014094395
0000a0 04 2c 46 bb 77 fe af bc 24 95 11 bc df fa 9f bc
       -0.0030238638 -0.021483643 -0.008885656 -0.019528804
0000b0 d5 5c 62 bb e9 4d 4d bc b0 fe 08 3d 71 0f 98 bc
       -0.0034540195 -0.012530782 0.033446014 -0.01856205
0000c0 54 a7 c5 bc 7f 8a 31 3d c2 93 32 3c 40 6e 1e bc
       -0.02412764 0.04334497 0.010899486 -0.00966984
0000d0 6a fb 67 bc 85 6a 71 3c 65 ab eb 3b 9e 57 7c bc
       -0.014159063 0.014734869 0.0071920627 -0.015401749
0000e0 6c 3f e7 3c 5e 78 8a bc 86 56 b5 bc f6 e7 d4 bc
       0.028228484 -0.016903099 -0.022135984 -0.025989514
0000f0 43 c9 34 bc 05 29 30 3c 71 f6 14 3d e0 bd 01 bc
       -0.011034313 0.010751967 0.036367837 -0.007918805
000100 21 ca 9a 3a a0 2a 35 bc 02 d8 5a bc 45 7b f9 3b
       0.0011809507 -0.011057526 -0.013357164 0.007613572
000110 08 f0 5d 3c 9f 36 79 3b 3e 59 5a 3c c3 49 06 bc
       0.013545997 0.0038026941 0.013326941 -0.008196297
000120 d8 37 23 3c 89 80 26 bb 21 75 f1 3b 8e 1e e7 bc
       0.009962045 -0.0025406203 0.007368699 -0.028212812
000130 ea 18 d8 bc a4 0f b4 3c aa 09 a7 3b cc a8 94 3b
       -0.026379067 0.021980114 0.0050975876 0.0045367237
000140 34 4f 0e bd 56 42 cd bc 19 c9 7b 3c 57 1c ef bc
       -0.034743503 -0.025056046 0.01536777 -0.029188318
000150 6b 69 71 bc 08 f3 30 bb 46 78 5d bc 52 c3 d8 ba
       -0.014734606 -0.0027000327 -0.013517445 -0.0016537702
000160 bc 4b 08 bc 4e d7 84 bc 7c 85 05 ba c7 41 0f 3d
       -0.008318838 -0.016215947 -0.0005093438 0.03497484
000170 92 63 f9 bc da e5 9c 3c bf e4 9c 3b c8 e2 c7 bc
       -0.030442987 0.01915257 0.004788011 -0.02440013
000180 f8 5b 23 3c 86 c5 8b 3c 05 5c 5e 3b 16 43 a5 38
       0.0099706575 0.01706196 0.003392936 7.880309e-05
000190 29 3b 78 39 5b f2 3e 3c 21 b1 cf bb e7 06 9c bc
       0.00023673162 0.011654462 -0.006338254 -0.01904626
0001a0 50 47 4c 3b 9e 10 78 ba da 5e 76 bb 75 74 b9 bc
       0.0031170435 -0.00094629254 -0.0037593157 -0.022638539
0001b0 99 ab b2 ba 77 43 0b bc bf 6f 6c 3b bd 50 a6 ba
       -0.0013631462 -0.008499972 0.0036077348 -0.0012688857
0001c0 8c 20 f2 3b ac c1 dc 3b e1 25 58 3b df 61 72 3c
       0.007389134 0.0067369547 0.0032981562 0.014793842
0001d0 2d 04 81 3c 13 b5 96 3c fa ce 97 3c 5d bf 7b 3c
       0.015749061 0.01839689 0.018531311 0.015365449
0001e0 84 c1 00 3d 58 62 8e bc da 33 12 3d 9f 8e 15 3d
       0.03143455 -0.017380878 0.03569398 0.036512967
0001f0 cf 89 bb 3c 55 46 d0 3c 1c fc 8a 3c 2b fe 7f 3c
       0.02289286 0.025424162 0.016965918 0.015624563
000200 40 f6 fa bc be dc a4 bc ce 18 db 3c 70 a9 d6 3a
       -0.030635 -0.02012479 0.026745226 0.0016377401
000210 71 c3 02 bd 8c 3b 22 bc 46 30 0e bd 96 1d 49 bc
       -0.03192467 -0.009901892 -0.034714006 -0.01227512
000220 7d 59 9f bc 63 60 12 bc 3b 42 b6 bc 23 63 89 bc
       -0.019451851 -0.008934113 -0.022248378 -0.016770905
000230 5f ea 2d 3c 40 3a 86 3c 37 88 f7 3a 12 d6 b1 bc
       0.01061496 0.016385198 0.00188852 -0.021708522
000240 d9 0d 96 3c 6f b5 f9 bb da 32 af bc 44 63 8c 3c
       0.01831715 -0.0076205055 -0.021386553 0.017137177
000250 27 20 a0 bc b8 a7 64 3c 35 7a 0f 3a f3 22 9a 3c
       -0.019546581 0.013956003 0.00054732274 0.018815493
000260 7a fb 88 bb 54 06 50 bb 86 e8 b8 bc 5c a5 7d 3c
       -0.004180369 -0.0031742053 -0.022571813 0.015481319
000270 74 eb 6c 3c db 95 a7 bc 6d 4c 71 bc b3 20 8a bc
       0.014460433 -0.020457199 -0.014727694 -0.016861295
000280 85 54 52 bb 22 06 c6 3b 1b c9 86 37 d3 75 93 b7
       -0.0032093835 0.0060432116 1.6067692e-05 -1.7578632e-05
000290 2a 18 5f 37 4a cf 65 b6 90 69 b7 b7 f0 e4 d4 38
       1.3297462e-05 -3.4244317e-06 -2.1864456e-05 0.00010151591
0002a0 34 2a 0b 37 f7 95 98 b6 0f 58 78 b5 9a ab 53 3c
       8.294872e-06 -4.547411e-06 -9.251534e-07 0.012919331
0002b0 2a c6 70 bb 21 e9 00 3c ac 92 dd 3b 75 c3 b0 bc
       -0.0036739209 0.007868082 0.0067618694 -0.021577576
0002c0 57 fb 69 3c cc e7 4d 3c 4a 37 b9 3b 72 bd 81 39
       0.0142811155 0.012567472 0.005652343 0.00024745945
0002d0 e8 37 0e bd b9 1a 6b bc 80 c4 13 bc e7 7d 60 3c
       -0.034721285 -0.014349633 -0.009019017 0.013701892
0002e0 37 36 b5 3c 69 ef e3 3b 1a 11 fe 3c 35 4b bd bc
       0.022120578 0.00695603 0.031014014 -0.02310715
0002f0 bf c6 be bc 69 20 b0 3b fa e0 9b bc b0 88 5c bc
       -0.023288129 0.0053749573 -0.019028176 -0.013460323
000300 3b 1f 0c ba 03 3b b2 bc 91 15 2a 3c fd c5 89 bc
       -0.000534523 -0.021756655 0.010381118 -0.016818041
000310 81 22 9a 3b dc 42 0b 3c ef fa 50 3b 34 a0 aa 3c
       0.00470382 0.008499827 0.003188785 0.020828344
000320 79 40 66 bb ae f5 18 3a d1 3d 11 bc 96 33 43 bc
       -0.0035133644 0.0005834949 -0.008864836 -0.0119141545
000330 4e 0c 62 bb 18 4b da 3b c6 34 88 bc 95 ce 85 bc
       -0.0034492197 0.006661784 -0.016626727 -0.016333858
000340 bc 3c 39 3b 2d 96 00 bd 6a 7a 23 3b fc 4a 15 bd
       0.002826496 -0.03139322 0.002494479 -0.036448464
000350 c3 b8 5e bc 4b ab 0f bc ed 8e be bc 73 20 8b bc
       -0.013593855 -0.008768867 -0.023261512 -0.016983246
000360 db fa 14 bc 04 2c ba 3c 63 9d 7a 3c b7 4a 7d 3c
       -0.009093012 0.022726066 0.015296313 0.015459708
000370 d7 35 e1 3b fc 7e c8 3b a6 3b d5 3c 24 b6 83 3c
       0.0068728733 0.0061186533 0.02602942 0.016078062
000380 98 3e ad 3b 10 68 f6 bc fd 98 94 bc 8f e4 a6 bc
       0.005287003 -0.030078918 -0.018139357 -0.020372657
000390 9b a8 36 3b 91 57 7a bc e2 66 59 bc 78 0e 9d 3c
       0.0027871493 -0.0152796665 -0.013269158 0.019171938
0003a0 f2 6a 1e bd 42 7e 0f bd d0 95 ba 3c 10 49 6d 3c
       -0.03867621 -0.03503252 0.022776514 0.0144827515
0003b0 6a 33 35 3c f6 76 31 3c 14 ab 2b bb be bf 8a 3c
       0.011059621 0.010831585 -0.00261945 0.016937133
0003c0 ec d8 9d bc d6 ff 8f bc 9a 51 ad 3b 28 90 33 3c
       -0.019268475 -0.017578047 0.0052892687 0.0109596625
0003d0 1f 36 56 3b 88 1c e7 3b 17 f0 11 3c 06 e4 35 bc
       0.0032686067 0.0070529617 0.00890734 -0.011101728
0003e0 e2 68 b9 39 74 a6 11 3c ab 8c 72 bb a7 0b a9 bc
       0.00035364093 0.008889783 -0.0037010114 -0.02063544
0003f0 28 dc 10 bc 84 1c 05 3c 7f c3 24 bc ed 35 bf 3b
       -0.008841552 0.008124474 -0.0100563755 0.005835286

fully_connected.1.bias f4 [132]
000000 a0 af fd b9 c3 db d4 3c a1 55 a7 bb e6 eb 4b 3b
       -0.0004838677 0.025983697 -0.0051066433 0.0031115948
000010 4e c9 b9 3c a6 a4 6f bc 1c 4d 07 bc a6 92 7f bc
       0.022678997 -0.014626658 -0.00825813 -0.015598929
000020 e5 64 d3 3c 04 7b e5 bb 4f 31 f2 3b 3c 81 3a ba
       0.025804946 -0.00700319 0.007391132 -0.00071145943
000030 92 38 fe 3c fd de 28 bc 15 5b f3 bb fd 9d a6 bb
       0.031032834 -0.010307071 -0.0074266293 -0.0050847516
000040 96 a5 7e b9 25 f6 2b 3c be 54 2e bc d8 10 2a 3c
       -0.00024285013 0.010495697 -0.010640321 0.010379992
000050 73 ee 72 3a a3 6e b5 3c ed a7 8f bc f7 ea cb bc
       0.0009267099 0.022147482 -0.017536128 -0.024892313
000060 0b 6a 12 3c 1c a5 3a bb 42 e1 47 3c 15 4f a9 bc
       0.008936415 -0.002847976 0.012199702 -0.020667592
000070 36 f5 f0 3b df 01 5e 3c 1d 13 b4 3c 1b 20 e1 3c
       0.00735345 0.013550251 0.02198177 0.02748113
000080 0f 86 82 3b c7 83 53 bc 81 41 89 3c 82 fb 6c 3c
       0.003983266 -0.012909836 0.016754868 0.014464261
000090 0d a2 05 3a 44 6d 73 3b 93 0d c2 ba c9 62 57 3a
       0.0005097695 0.0037143985 -0.0014805071 0.0008216319
0000a0 a2 be bb 3c 75 45 33 bb 02 19 5b bb fe 03 91 bc
       0.02291805 -0.0027354632 -0.0033431654 -0.017702099
0000b0 e8 a2 d3 bc ba 04 d9 3b d4 b6 69 3c 4e 18 b4 3b
       -0.025834516 0.006622878 0.014264781 0.0054960614
0000c0 33 96 01 bc 5d d1 ee 3a 02 e8 71 bc 47 36 0d 3c
       -0.007909345 0.0018220354 -0.014764788 0.008618898
0000d0 a3 40 55 bc 55 ae 39 bc a7 63 1d bc 96 6e 89 bc
       -0.013015899 -0.011333068 -0.0096062785 -0.016776364
0000e0 25 db f3 bb 04 00 62 bb cd 3d 85 bb d1 af dc bb
       -0.0074418955 -0.0034484873 -0.004066205 -0.006734826
0000f0 57 4f 19 3c 29 b9 ea bb db cd f5 3c 7a a1 5b bb
       0.009357295 -0.007163186 0.030005386 -0.0033512996
000100 6d 02 9e 3c e7 36 a6 bb 7e a9 ae 3c c7 93 d4 3c
       0.019288266 -0.005072463 0.021321055 0.025949372
000110 68 90 94 3c 33 cc f2 bb b0 78 84 3b 84 03 c5 bc
       0.018135265 -0.0074095964 0.0040427074 -0.024049528
000120 fd eb 8c bc 6d 4f 66 bc 87 74 aa bb bf b6 33 3c
       -0.017202372 -0.0140570225 -0.0052018794 0.010968863
000130 bc c1 b8 3b a4 be d1 3b 73 92 9f bb 1b ac 31 3c
       0.0056383293 0.0064009 -0.004869753 0.010844256
000140 b5 ff 63 3b 69 0e 4b 3c 55 6b 63 bc fd bb fe 3c
       0.0034789864 0.012393572 -0.01388057 0.0310955
000150 81 84 f8 3c 68 15 9d bc 72 e1 7e 3b de e9 92 3c
       0.03033662 -0.019175246 0.00388917 0.017933782
000160 0a 70 9a bc 9a 70 59 3c 03 c8 08 3d 59 6b 86 3c
       -0.018852253 0.013271475 0.03339387 0.01640861
000170 d3 50 16 bc ef a0 88 3c d8 8d 8e bb de 9f 06 bd
       -0.009174543 0.016678302 -0.004350405 -0.032867305
000180 ca 96 d9 3c 56 e5 0b bc d5 46 b0 3c 8d 01 e0 3a
       0.02656116 -0.008538565 0.02151815 0.0017090306
000190 14 cf 40 ba d6 6e 04 3d cb de 7f bb e5 79 9a 3c
       -0.0007355076 0.032332264 -0.0039042707 0.018856952
0001a0 5c 11 bf bc e5 c9 0a 3c e0 ae 84 bc c2 8e 8d 3c
       -0.023323707 0.008470987 -0.016196668 0.017279986
0001b0 95 48 12 bc b3 36 e5 ba 18 c5 8d bc e5 0c 87 bc
       -0.008928438 -0.0017487615 -0.017305896 -0.01648564
0001c0 f8 f5 f6 bb fb 5d 33 3c 98 19 c0 bc ca 8f b5 bc
       -0.007536646 0.0109477 -0.023449704 -0.02216329
0001d0 b6 f1 1f bc cb b7 ab bc f0 b0 22 bb a3 b6 6b 3c
       -0.009762218 -0.020961663 -0.0024824701 0.014386806
0001e0 df c0 1d 3a e0 9b 6c 3c 4c 03 ae bb f6 ee 58 3c
       0.0006017815 0.01444146 -0.0053104516 0.0132405665
0001f0 eb cc 99 3c 30 b2 72 bb 9c e6 60 ba a6 d2 cf bb
       0.01877447 -0.0037032478 -0.00085792853 -0.00634225
000200 88 1b e7 b9 ec 4f 97 3c 4e 60 54 bb 50 b7 9d 3c
       -0.00044080266 0.018470727 -0.0032406035 0.01925245
