checkpoint/model_30_0.31.pth (torch, 101987 bytes, 18 tensors)

cnn.0.weight f4 [20, 1, 5, 5]
000000 0f 69 a3 3d b8 35 64 3d 30 f6 04 3d 79 6c 5b bc
       0.07979023 0.055715293 0.032461345 -0.013392561
000010 44 5a 91 bc cf 95 cd 3c f9 58 3a bc cf d1 43 3c
       -0.017743237 0.025095848 -0.011373752 0.011951878
000020 d4 a1 98 bd 1f 80 3d bd 66 f1 af 3c 34 3e cf bc
       -0.07452741 -0.046264764 0.021477412 -0.025298215
000030 b1 53 ab 3b e2 67 e9 3c 9b 50 68 3d af 08 58 bd
       0.0052284827 0.028491918 0.056717496 -0.052742656
000040 42 69 1a bd 07 30 a4 bb 51 87 04 bd bd 7b 74 bc
       -0.037698038 -0.005010608 -0.03235561 -0.01492208
000050 86 c7 41 bd 42 a4 7d 3d 19 f1 51 3d 4f 2c a6 3b
       -0.04730942 0.061924227 0.05125532 0.0050712
000060 20 1b 9a 3c d5 2c 7b 3b 7c 61 ca 3b 02 29 7b bc
       0.018811762 0.0038326283 0.006176172 -0.015329601
000070 2b 05 a1 bc ba b0 4b bc 81 e9 2e bb dd 43 39 3c
       -0.019655785 -0.012432272 -0.0026689472 0.011307684
000080 d6 61 2d 3c 02 6c 07 bc f6 7d 8e bc 38 53 03 3d
       0.010582408 -0.008265497 -0.017394047 0.032061785
000090 d6 86 1c 3c 28 fc ae 3c 33 89 6d bd d6 d0 63 bd
       0.009553632 0.021360472 -0.05799217 -0.055619083
0000a0 35 4d c1 3b 5d 3e 6e bc 4a a9 a9 bc fd 96 9e bc
       0.0058990964 -0.014541236 -0.020710606 -0.019359106
0000b0 c1 27 2e 3b db 7d b4 39 e6 6a 9e 3b a3 61 56 3b
       0.0026573988 0.00034426045 0.0048345206 0.0032712005
0000c0 85 23 1c bc 63 39 37 bd ab bf 84 3d 32 08 b4 bc
       -0.009529953 -0.044732463 0.0648187 -0.021976564
0000d0 0e 04 a1 bd d0 22 d0 3c c1 8a 20 bd bc 32 ac bd
       -0.078621015 0.025407225 -0.039194826 -0.08408114
0000e0 a3 7c e6 bd de 92 33 3d 4d 01 35 bd 16 19 7d 3d
       -0.11254241 0.043841235 -0.044190694 0.061791502
0000f0 73 3f a3 bc 8e b9 1d 3d 63 d0 9b 3d d3 f3 50 3d
       -0.019927716 0.038507037 0.07608106 0.05101378
000100 61 50 9d 3d 04 7e ed 3c 3a 6c 74 3d 23 4b 32 bc
       0.07681347 0.028990753 0.059673525 -0.010882172
000110 aa 0b 6c bd ac 44 96 bd 2d cd 8b bd 0c a1 0d bd
       -0.05762831 -0.07337317 -0.068262435 -0.034577414
000120 3e 4b 21 3c 7e 9b c2 bb 14 eb a8 3b e0 c1 81 3d
       0.009844599 -0.0059389463 0.0051549766 0.06335807
000130 70 fe 86 3d 75 e1 e6 3c 34 e8 09 3b 15 c1 42 3c
       0.06591499 0.028183678 0.0021042945 0.011886855
000140 0e 25 c2 bc 6f 32 2e bd f3 59 62 bc ff 8b 9a bc
       -0.02369931 -0.042528566 -0.013815391 -0.018865583
000150 8f bb a1 3c 41 03 88 3c c9 74 3e 3d 8a 50 a8 3c
       0.019742755 0.016603114 0.046498094 0.020546217
000160 d6 86 13 bd d4 83 10 bd 2a 19 aa 3c 8f e6 5b bd
       -0.03601726 -0.03528197 0.020763952 -0.053686675
000170 d6 ee e9 bc e3 dc 8f 3c 02 93 72 3c 08 05 09 bc
       -0.028556269 0.017561382 0.014805557 -0.008363016
000180 50 2c 9a 3c 5f f8 aa bc 19 c1 da 3b 3c 1d 90 3c
       0.018819958 -0.020870386 0.006675851 0.017592065
000190 0e 95 de bc df ac 25 bd d7 c8 4b bd 62 7e f5 3c
       -0.027170684 -0.040448066 -0.049752083 0.02996749
0001a0 89 d5 2d 3d f7 11 8e 3d 44 38 05 bd dd f4 d8 3b
       0.04243997 0.0693702 -0.032524362 0.006620987
0001b0 5d db cf bc b8 e2 32 bd 46 41 fb bc 47 f1 17 bc
       -0.025373155 -0.043673247 -0.030670773 -0.009273834
0001c0 00 2b 56 3d 0c a1 d0 3c 8e a4 a3 3d 84 63 c8 bd
       0.0522871 0.025467418 0.07990371 -0.09784606
0001d0 2a be bb bd 7e 78 65 3d 1f e6 bd bc 14 b8 4d bc
       -0.0916713 0.056023113 -0.02318102 -0.012556095
0001e0 57 e2 50 3d b4 05 91 bc d5 e7 2c bd 4b 7b ec 3b
       0.050997104 -0.017702915 -0.04221328 0.007216846
0001f0 19 5f a7 bd 02 9e 6e bd ce 99 2e 3b 7c ca 26 bc
       -0.08172435 -0.058256157 0.0026641968 -0.010180112
000200 f7 58 ee 3b 6e 4c 24 bb 5b 2d 2c 3d 27 4c 48 bb
       0.007273789 -0.002506997 0.04203544 -0.0030562968
000210 b9 b1 63 3c f1 17 51 bd 06 0b af 3c d7 0f 1e bd
       0.013897353 -0.051048223 0.021367561 -0.038589325
000220 e3 0f c5 bb ce bc b3 bc 79 7f e2 bc 41 2f 88 bc
       -0.0060138567 -0.021940615 -0.027648674 -0.016624095
000230 e1 a8 51 bd 37 1a c8 3b 38 6b 20 3d 08 2d f1 bc
       -0.051186446 0.0061066407 0.03916475 -0.029440418
000240 21 2a a5 3c 75 b2 27 bd dd 7e 5a 3d e0 bb dc 3c
       0.02016169 -0.040941674 0.053343643 0.026945055
000250 25 12 3e 3d 33 3f a4 bb 55 4b f5 3c 76 4d bc bc
       0.046404023 -0.0050124167 0.029943148 -0.022986155
000260 12 80 80 bd c9 bd a4 bd c0 f4 83 bd a0 ba a9 3d
       -0.062744275 -0.08044011 -0.06443167 0.08287549
000270 49 ae c3 bb 96 de c5 3c e6 06 84 3a 58 78 6e 3d
       -0.005971704 0.024153989 0.0010072857 0.058220237
000280 1a 0c da bc b8 e3 a5 bc 28 de b2 bc a0 66 f3 3c
       -0.026617099 -0.020250186 -0.021834448 0.029712021
000290 19 2b 67 bd 5b d0 05 bd a3 f1 cb 3c 22 c0 45 3d
       -0.056437586 -0.032669406 0.024895495 0.048278935
0002a0 fa c1 52 bd dc 7c 9a 3d 6e 7e c5 3d cf f9 9b 3d
       -0.05145452 0.07543346 0.09643255 0.076160066
0002b0 de 0a 02 bd bf 8e 65 bb 56 a6 04 bd 52 19 47 bd
       -0.031748645 -0.003502771 -0.032385193 -0.04860813
0002c0 82 76 b7 bc 1e 04 3a 3d 07 a3 26 3d 04 b9 18 bd
       -0.022395376 0.045414083 0.04068282 -0.03728582
0002d0 73 0f f4 3c 07 67 a9 3b 0c 83 21 bd b6 c8 14 bc
       0.029792523 0.0051697525 -0.039431617 -0.009081056
0002e0 0e b9 fc 39 3e ca ad bc 46 48 05 bc ad 48 50 bd
       0.00048203062 -0.0212146 -0.008134907 -0.05085056
0002f0 7a ff e4 bc 58 95 8d 3c 5c 23 6a 3c 4f 89 87 3c
       -0.027953852 0.017283127 0.014290657 0.016544966
000300 59 dc 3f 3a d7 6d 55 bd 0c b6 58 bb a2 be c4 3c
       0.0007318906 -0.052106705 -0.0033067493 0.024016682
000310 27 b3 68 bd c6 0a a1 bb 09 f6 0e 3c 02 e6 b4 3b
       -0.056811478 -0.0049146144 0.008725652 0.005520583
000320 ba c4 a9 3c 91 83 76 3b f0 5d 40 3d 99 8b 9f 3b
       0.02072369 0.003761504 0.046964586 0.0048689363
000330 dc a8 0c 3d 46 07 9e bc 66 b5 d9 bb fc 00 88 bc
       0.034340724 -0.019290578 -0.006643939 -0.016602032
000340 a3 da 58 bb 22 58 3b 3d 3f 28 44 3d 0e 50 a0 3c
       -0.0033089302 0.045738347 0.047889944 0.019569423
000350 b0 cf 0e 3b ac 4b ef ba fc f9 f3 bc 6f 08 f8 ba
       0.0021791272 -0.0018256805 -0.029782288 -0.0018923412
000360 84 68 d0 3c 11 78 17 bd 04 5b df 3a 69 a8 11 bc
       0.025440462 -0.03697974 0.0017040675 -0.00889025
000370 c3 38 03 bd c3 fe 74 bd f5 97 0f 3d 1c 26 23 bd
       -0.032036554 -0.059813272 0.035057027 -0.039831266
000380 83 95 24 bd e6 3b 7c bb 0c 16 35 bd e4 15 0a 3d
       -0.040181648 -0.003848785 -0.04421048 0.033712283
000390 2a 5e 86 bd bd 3c 03 3d f9 b6 9d bc 2d 56 7a bc
       -0.06560929 0.032040346 -0.019252287 -0.015279335
0003a0 50 31 8d 3b c1 5f 1f 3d b4 25 05 bc c5 92 25 3c
       0.004308857 0.038909677 -0.008126665 0.010105793
0003b0 4d 68 aa 3b 70 26 c7 3b 9b fc 3d 3d 97 9f 57 bd
       0.005200422 0.00607758 0.04638348 -0.05264243
0003c0 50 29 ad bb ca ff 76 bd 2b cb 3e bd 2b 2e 38 3b
       -0.005284466 -0.060302533 -0.046580475 0.002810369
0003d0 e7 2d a8 bc f1 0f ca 3b cb ee 3d 3d 6b 4c 38 3c
       -0.0205297 0.006166451 0.04637031 0.011248688
0003e0 aa f0 9f bc 8a e9 6c 3d 26 d1 0e bd 4f 39 e8 bb
       -0.019523937 0.057839908 -0.03486743 -0.00708691
0003f0 72 1c 5d bd da 59 63 bd ef 86 4b bc 76 16 7d 3c
       -0.053982206 -0.05550561 -0.012422307 0.01544725

cnn.0.bias f4 [20]
000000 6b eb f6 bc 78 d1 13 bc 80 2d 65 3d ee 5c de 3c
       -0.030141553 -0.009022109 0.055951595 0.027143922
000010 e9 7d a8 bc 2a e9 1b 3b d8 1c 08 bd d9 50 24 3d
       -0.020567851 0.00237901 -0.033230633 0.040116165
000020 92 9c 94 3d d7 1c 73 bd d2 90 bd bc 41 2d a8 bb
       0.07256426 -0.059353676 -0.023140345 -0.005132348
000030 83 29 b7 bd fc 5a 26 3d 8f 15 9c 3d ee 66 dc 3d
       -0.089434646 0.040614113 0.076212995 0.1076182
000040 95 d6 ae bc 5e f8 cd bd 0f 67 e9 bb 37 62 9d 3d
       -0.021342555 -0.10057138 -0.0071228812 0.076847486

cnn.3.weight f4 [16, 20, 4, 4]
000000 8d a1 1e ba 67 d2 ef b9 cd 38 f1 39 c7 68 ab 39
       -0.00060512946 -0.00045742394 0.00046009422 0.00032693727
000010 c2 49 0b 3b 85 79 33 3a 00 4a 24 ba 59 0f ee ba
       0.002125368 0.0006846416 -0.00062671304 -0.0018162533
000020 dd ab 65 ba 5c 43 88 3a e0 3f b4 3a 30 6d 26 bb
       -0.00087612664 0.0010396051 0.0013751946 -0.002539467
000030 69 35 ba bb 3f 94 b1 bb 6e 29 90 bb 1a c0 d4 bb
       -0.0056826365 -0.0054192836 -0.00439947 -0.006492627
000040 6c d5 9a b7 51 6b 13 ba a1 4c 45 ba cf 44 1e bb
       -1.8457613e-05 -0.00056235964 -0.0007526372 -0.00241499
000050 d6 e4 6c ba 27 38 76 ba 27 82 da ba d0 fb 16 bb
       -0.0009036785 -0.00093925226 -0.0016670868 -0.0023038276
000060 b7 cc bc ba f8 e3 de ba 20 1e 4d bb 05 93 d7 ba
       -0.0014404271 -0.0017005196 -0.0031298473 -0.0016447013
000070 a2 15 10 bc 6a 47 2d bb c4 2a 7e bb b5 90 7d bb
       -0.00879422 -0.0026440271 -0.0038782815 -0.0038690988
000080 f4 6e 50 bb 21 cb b7 3c 60 c3 42 3a 35 20 90 3a
       -0.0031804414 0.022435727 0.0007429626 0.0010995927
000090 c9 12 7b bc 54 c9 4f bb ec cb aa 3b b7 c5 51 3c
       -0.015324303 -0.0031705694 0.0052122977 0.012803487
0000a0 2b 33 31 bc 1c c7 f1 bb cd fe 1c bc ce 33 b0 3c
       -0.010815422 -0.007378472 -0.009582234 0.021509077
0000b0 8b 13 51 bc 5b 1f 3c 3c 08 ab 88 bc 39 13 6f bc
       -0.012761007 0.011482085 -0.016683117 -0.014591985
0000c0 e9 92 68 bb 40 77 58 bc cb 79 43 3b 7b 26 fc 39
       -0.0035487956 -0.013212025 0.0029827233 0.00048093856
0000d0 a0 27 01 3c 7e 64 3f bc ea 13 d8 bb 93 27 3a 3c
       0.0078829825 -0.011681674 -0.006594171 0.011361974
0000e0 59 88 11 b9 98 04 0d bc 19 14 d8 3b cc 79 fb bb
       -0.00013879071 -0.008607052 0.0065941927 -0.0076744314
0000f0 08 73 9f bb 4b 48 cd 3a 50 04 7e bb 4b f4 35 3c
       -0.0048660077 0.0015661804 -0.0038759895 0.011105607
000100 02 8a 7b bb 39 89 0a ba f3 d0 80 3b 1c 8b 0d 3c
       -0.003838182 -0.000528473 0.0039311587 0.008639123
000110 7b 5c 92 3a af ca 14 3c 54 de 9d ba 2c 0e 19 bb
       0.0011166477 0.009081527 -0.0012044408 -0.0023354394
000120 a2 b5 6a bb 8e d3 2b bc aa 3c 17 3b fb cf f7 3b
       -0.0035813828 -0.01048745 0.002307693 0.007562635
000130 d1 57 64 3b bd 89 af 3b ca e8 65 bc e4 1f c3 bb
       0.0034842382 0.005356996 -0.014032552 -0.0059547294
000140 60 ec 5b bb 7e 9f ac ba 20 d3 b8 b8 44 17 9b ba
       -0.0033557639 -0.0013170091 -8.813129e-05 -0.0011832495
000150 c4 41 f4 b9 c9 87 3f ba 15 d1 bf 39 ef 9e 8d 39
       -0.00046588306 -0.00073063053 0.00036586137 0.0002701203
000160 62 63 a6 bb ff fd 9e ba 5a b1 a1 ba 6c 36 17 bb
       -0.0050777653 -0.001213014 -0.001233618 -0.002307321
000170 cd b5 ba 3a d7 57 63 ba 3a 5c 08 b9 ac bf 1d bb
       0.0014244855 -0.0008672452 -0.00013004328 -0.0024070544
000180 48 89 ec bb a5 17 0f bc 7c db 56 bc d1 aa b8 bb
       -0.0072185136 -0.008733665 -0.013113853 -0.0056355973
000190 c2 3f bd ba b9 24 80 bb 26 bf c1 bb 94 7a 2f bb
       -0.0014438557 -0.0039106277 -0.0059126792 -0.0026775943
0001a0 36 45 64 3b f0 a4 d5 ba 4e 8e 34 bc 7d 1a 7b bb
       0.0034831292 -0.0016299766 -0.011020256 -0.0038315349
0001b0 9b 57 3b bb 14 20 db 39 37 dc af bb 5f 72 32 bb
       -0.0028586152 0.00041794835 -0.005366828 -0.0027228815
0001c0 d4 2f 80 bb 23 bc 4b 3c 20 2f 67 bb 3c b6 b0 bb
       -0.0039119516 0.012434992 -0.0035275891 -0.005392818
0001d0 81 9b 99 3b c4 43 9d 3b d3 91 11 3c a9 26 5b bb
       0.004687727 0.004799338 0.008884865 -0.0033439791
0001e0 95 6d b4 3b 04 c8 dc ba db 15 5d 3b e2 74 00 ba
       0.0055062273 -0.0016844277 0.003373495 -0.00049002294
0001f0 d2 8c 8c bb e4 bc 9f bb 0e 07 96 3b 85 8a 34 ba
       -0.004289248 -0.0048748124 0.0045784777 -0.0006887096
000200 16 4c 18 bb 42 84 58 3c 1c ba a7 bb 11 e4 84 3b
       -0.002323871 0.0132151265 -0.0051186215 0.004055508
000210 2b 17 2a bc cb 4f 97 bc 3f 32 c3 39 d7 9f 81 ba
       -0.0103815 -0.018470665 0.00037230735 -0.0009889555
000220 bc 46 53 3c 72 4b 16 bc f2 44 36 bb af 1e 81 bc
       0.012895282 -0.009173261 -0.002781209 -0.015761701
000230 2b 37 75 bb 6f 89 11 bc 72 d0 b6 bc 74 9f ce bb
       -0.0037416916 -0.008882864 -0.022316191 -0.0063056294
000240 a8 d4 63 3a 6e b5 b2 3a e1 9d f8 3a 42 45 99 3a
       0.0008691051 0.0013634393 0.001896795 0.0011693614
000250 1a f1 e0 39 38 31 87 b9 7b 28 4d ba 75 5d 71 b9
       0.00042904244 -0.00025785877 -0.00078261615 -0.00023018366
000260 cd 0a e1 b8 33 3a 24 3a 35 cc 64 ba 2d 8e 56 b8
       -0.00010730848 0.0006264776 -0.0008727939 -5.1153987e-05
000270 db c0 8b 38 b6 f9 b1 ba 31 78 ad ba 9a 83 db ba
       6.6639586e-05 -0.0013578448 -0.0013234672 -0.0016747594
000280 f1 2f 81 bb 90 91 a3 bb 78 a7 18 3a dc 69 22 3a
       -0.0039424826 -0.0049917176 0.00058232946 0.0006195584
000290 e8 2e 68 b8 80 b7 a0 39 2b 97 97 ba 13 d8 47 bb
       -5.5356795e-05 0.00030654296 -0.0011565437 -0.003049378
0002a0 d1 28 3c bb d2 ff 2f bb 0d 94 11 bb db f3 0f bb
       -0.0028710852 -0.0026855362 -0.002221349 -0.0021965418
0002b0 6c 3f b6 bb 42 a7 c5 bb 2d 02 f1 bb d1 57 a3 bb
       -0.0055617597 -0.0060319016 -0.0073549957 -0.0049848338
0002c0 44 8d 77 bb 6e 57 92 bb c0 ce f1 bb f4 9f 25 b8
       -0.003777341 -0.004465989 -0.007379383 -3.9488034e-05
0002d0 77 f9 9a 3b 64 3b ad bb 01 47 1b bb 25 7d 35 bb
       0.0047294456 -0.005286621 -0.0023693445 -0.0027693
0002e0 a6 ec c4 ba 40 dc ce ba 85 3d f9 3a fd 9b c8 bb
       -0.001502414 -0.0015782192 0.0019015527 -0.006122111
0002f0 65 72 d7 bb 26 21 a6 bb 5d ef cc bb 4f 25 41 ba
       -0.006574916 -0.0050698696 -0.0062541203 -0.0007367925
000300 6c 9c 24 3b 87 f4 4d ba e1 fb 1a bb 05 7d f2 ba
       0.0025117649 -0.0007856567 -0.0023648667 -0.0018500393
000310 51 2b 45 3b 39 b7 19 3b e1 a8 4d 3b ab 68 e9 bb
       0.0030085633 0.0023455156 0.0031381177 -0.007123073
000320 b4 21 c7 bb 63 6f 96 ba 11 65 e3 ba e0 e6 c1 ba
       -0.006077016 -0.0011477288 -0.0017348846 -0.0014793538
000330 89 38 54 3a 2a 1a 0c bc dd 41 17 bc 15 93 9e bb
       0.00080955826 -0.00855116 -0.009232012 -0.004839311
000340 df 6d 96 bb 7c a6 83 ba d6 61 0e 3c 90 f0 11 bc
       -0.0045907344 -0.0010044123 0.008690318 -0.008907452
000350 e4 4c 24 bc b7 b9 f5 bb f6 89 a3 39 fa 84 1c 3c
       -0.010028098 -0.0074989456 0.00031192572 0.009553188
000360 6c 17 0b bb 7b 04 a1 ba be 42 a4 39 ac f7 b5 3b
       -0.0021223677 -0.001228466 0.00031330244 0.0055532064
000370 4c 84 9f 3b 38 37 c0 bb b6 06 1a bb 08 fd 97 bb
       0.004868066 -0.0058659576 -0.0023502535 -0.004638318
000380 da c6 64 bc 73 c9 6a bc 44 69 73 bc cf a6 64 ba
       -0.0139634255 -0.014330256 -0.01485664 -0.0008722366
000390 8c 13 88 3c c1 de 73 bb f4 d8 1b bb 22 19 4b bc
       0.016610883 -0.003721163 -0.0023780437 -0.012396129
0003a0 07 df 43 3c 5c ff a9 3c ff 08 03 3c 8d cf 03 ba
       0.011955029 0.020751648 0.00799775 -0.0005028181
0003b0 79 4d 12 bc 8c dd c5 3a 55 a1 c3 bb 48 39 2b 3c
       -0.008929604 0.0015095933 -0.00597016 0.010450669
0003c0 b7 c4 b0 3b a9 fd 71 3b de 9d b8 3c 11 63 8c 3c
       0.005394544 0.0036924875 0.022536214 0.017137082
0003d0 b0 c5 6f 3c 71 ed f9 bb c9 a4 82 3c ac c5 20 3c
       0.014634535 -0.007627182 0.015947716 0.009812754
0003e0 44 40 b2 3c 8a ac 4c 3c b3 d8 ce bb 7e 0b 95 3c
       0.02175916 0.012492308 -0.0063124537 0.018193956
0003f0 76 2e 97 ba 05 2e 79 3b 01 1a 9c bc 5c 2e 3e 3c
       -0.0011534232 0.0038021815 -0.019055368 0.011607733

cnn.3.bias f4 [16]
000000 c3 80 7f 3c c5 57 fc ba 96 67 80 3b e4 dc de bb
       0.015594664 -0.0019252232 0.0039185984 -0.0068012346
000010 78 7d f4 3c 45 21 c0 bc 4b 30 d9 3c 99 a8 35 ba
       0.029844984 -0.023453364 0.026512286 -0.0006929725
000020 26 61 c9 bc ce 7a 8e bc 47 55 11 bc 0f 46 03 3d
       -0.024582457 -0.017392542 -0.008870429 0.032049235
000030 b4 19 b7 bb 06 b9 d7 3c 4b d5 95 bc 8f 0a 53 3c
       -0.005587781 0.026333343 -0.018290183 0.012880935

cnn.6.weight f4 [16, 16, 3, 3]
000000 b5 72 09 39 8d 43 a4 ba 93 08 75 38 7e 5f 66 39
       0.0001310807 -0.0012532339 5.8420537e-05 0.00021970083
000010 2a 30 81 b8 6d 02 c7 38 64 9d ba b7 c5 ca e7 ba
       -6.1601706e-05 9.489511e-05 -2.2246219e-05 -0.0017684331
000020 28 33 38 37 99 5b 81 39 4b 8f 19 3b 9e 83 cb bc
       1.0979165e-05 0.00024673043 0.0023431357 -0.024843033
000030 31 5c 35 bc e2 5f 07 bc 8f b4 d9 bb 1b 02 0c 3c
       -0.011069343 -0.008262606 -0.0066438387 0.008545424
000040 e5 d3 8d 3c fb 13 3f 3c 6a 98 d5 bb 58 0f e4 3b
       0.017312953 0.011662479 -0.0065184133 0.006959837
000050 44 50 f4 ba eb f4 ea 3a 90 79 f7 3b d7 a2 e9 bb
       -0.0018639644 0.0017925774 0.007552333 -0.0071300077
000060 33 d8 a1 bb 22 a3 53 3b 3f 9a 02 3a c7 43 0a 3a
       -0.004939103 0.003229328 0.0004982091 0.0005274382
000070 ee 06 38 b4 21 fb 81 b9 8d c0 53 bb 0c 97 ab 38
       -1.7138856e-07 -0.00024791903 -0.0032310814 8.18205e-05
000080 39 93 83 39 3d f7 bb 34 ab b8 a9 b9 16 f4 01 b4
       0.00025095957 3.5011354e-07 -0.0003237178 -1.2102859e-07
000090 89 98 fe bc 88 e3 47 bd a8 01 88 bd df 74 76 3c
       -0.031078594 -0.048800975 -0.06640941 0.015042513
0000a0 15 ad e4 bc dd 70 9e bc e6 8e 34 bd 36 f2 1e 3d
       -0.027914563 -0.019340927 -0.04408159 0.03880521
0000b0 b1 c7 db 3c 16 f0 bb 3c f6 67 b0 bc 77 86 f0 bc
       0.026828619 0.02294163 -0.021533947 -0.029360993
0000c0 e4 14 59 bc aa 6b d1 bc 99 ca 80 3b ac 00 82 bc
       -0.01324961 -0.025564034 0.0039304015 -0.015869461
0000d0 69 d0 c5 bc 4c 9a 84 bb 92 f3 c4 ba 9d a9 33 3b
       -0.02414723 -0.004046714 -0.0015026203 0.002741433
0000e0 0f 67 13 3b ef 07 3f bb 79 eb 7e ba fd df 8b 3a
       0.0022491848 -0.0029149016 -0.0009724419 0.0010671612
0000f0 37 1e 0d 39 68 bb 60 39 e3 fa 93 3a 32 3d 8e b2
       0.00013458064 0.00021432119 0.001128998 -1.6558804e-08
000100 f5 b1 1c 35 ae 90 ab b5 88 bb 4c b0 29 c1 50 36
       5.837349e-07 -1.27826e-06 -7.4481266e-10 3.110685e-06
000110 5c 3a 8d b1 41 fe 90 33 b4 f1 8a b2 bd 6f 18 b4
       -4.110275e-09 6.751771e-08 -1.6175228e-08 -1.4196753e-07
000120 8d 66 00 3d c7 45 c2 3b e8 6f f8 bb 45 b6 2b 3c
       0.0313478 0.0059287283 -0.0075816996 0.010480468
000130 a6 bb 6a ba d7 d7 59 3c 4e bf 7d 3c 7d 63 b0 3c
       -0.00089543534 0.013296089 0.015487505 0.021531815
000140 26 f0 70 bc 0d ee a0 bc 60 a7 c7 3c d6 a1 1f 3b
       -0.014705693 -0.019644761 0.024371803 0.0024357936
000150 17 1f 1b 3c b8 7a 69 bb 4f 24 2f bb 4d ed e0 3b
       0.009467862 -0.0035626125 -0.0026724522 0.006864226
000160 23 d5 07 bb 6d fd ae bb 9b 7a 88 b4 5d b0 ac 35
       -0.0020726405 -0.0053402693 -2.542118e-07 1.2866327e-06
000170 0b 81 49 b7 83 5a ec b6 e6 cf 0b 37 c7 68 44 b2
       -1.2010579e-05 -7.043885e-06 8.333451e-06 -1.1432525e-08
000180 bc 02 b4 38 34 5a 06 34 ac b0 9b 36 0c c9 cd 3c
       8.583578e-05 1.2512538e-07 4.6399273e-06 0.02512028
000190 6d fe 15 bd bc fe 38 3d 08 aa 80 bd d2 7c 21 bc
       -0.036619592 0.04516481 -0.06282431 -0.00985642
0001a0 0a b0 5b bc 0d 35 58 bd 11 da 6a bd ce e2 e3 bc
       -0.01340867 -0.05278497 -0.05733687 -0.02781811
0001b0 59 83 25 bd 84 a5 e3 bc 63 90 8e bd 8f 82 a5 3c
       -0.040408466 -0.027788885 -0.06961133 0.020203857
0001c0 19 1a ed 3c a4 00 f2 bc 0d b9 2f bc bf eb 7c bd
       0.028943108 -0.029541321 -0.010725272 -0.061748262
0001d0 72 50 d1 bc cd ec 43 3d 0e b5 c2 3c 86 23 b9 ba
       -0.025551055 0.047833253 0.023767974 -0.0014124967
0001e0 85 63 52 bd 6a 40 7d 3c c8 40 ea 3c 45 de 31 3d
       -0.05136444 0.015457252 0.028595343 0.043424863
0001f0 99 05 47 bb fb 05 8a 3c 74 33 80 3c a9 50 f1 bc
       -0.0030368327 0.016848555 0.015649535 -0.029457407
000200 4e 00 10 3c 4a 0f e0 3c 22 89 cd bc c4 4f 88 3c
       0.008789135 0.02735104 -0.025089804 0.016639598
000210 14 22 d3 bc b9 4a 46 3c e4 d6 d3 3c e1 71 09 bd
       -0.025773086 0.012102776 0.025859304 -0.03355587
000220 a0 87 03 3d e2 f5 c3 3c 60 22 32 3d 0b 49 cc 3c
       0.032111764 0.023920957 0.043489814 0.024937173
000230 4b 73 02 3d cf ca 23 bd cf a3 17 bc c6 01 c6 3b
       0.031848233 -0.039988335 -0.009255364 0.006042692
000240 3f 8b ff ba 5b 37 52 bb e9 81 a8 3b 1a c0 16 3b
       -0.0019496455 -0.0032076451 0.0051424396 0.0023002685
000250 de 5f 87 bc 07 2c d8 3b 84 a0 f6 3b 57 fe b4 bb
       -0.016525205 0.0065970453 0.007526459 -0.0055234837
000260 08 e0 84 bb aa 61 a0 3c f0 f1 ee bc 58 bf 1a bd
       -0.004055027 0.01957782 -0.0291681 -0.037780136
000270 89 c5 12 bd 1a 20 e7 3b 84 fb 18 3d 45 7e 71 bc
       -0.035832915 0.0070533874 0.03734924 -0.014739578
000280 27 fc ad 3c 2b 14 a3 3b 80 c3 e5 3b 2d d5 42 bc
       0.0212384 0.0049767694 0.007011831 -0.011891645
000290 4a 62 4c bb 62 f6 26 bc 32 44 5d 3c 1d eb b6 3c
       -0.0031186515 -0.010190578 0.013505029 0.022328908
0002a0 c6 1e 7f bc 6a 2a 06 3c 1c 51 95 3c 90 d4 8c 32
       -0.015571302 0.008188823 0.018227153 1.6394807e-08
0002b0 ce a7 7d 35 88 86 35 b3 5d 1b 50 b7 96 f8 11 36
       9.449403e-07 -4.2264702e-08 -1.2404137e-05 2.175138e-06
0002c0 55 f7 58 b9 e6 5c 99 bb 20 11 5b 3b f6 d2 8a 3b
       -0.00020691504 -0.004680264 0.0033426955 0.0042365743
0002d0 4a 9e 3c bd 05 be bb bc 95 c8 18 3c af 02 3c 3d
       -0.046049394 -0.022917757 0.009325166 0.045900997
0002e0 2c 37 1e 3d f8 d0 00 3d ab 59 1b 3c a5 91 13 bd
       0.038626835 0.031449288 0.009481828 -0.03602757
0002f0 ae f0 08 3d 9a 03 35 bd 9f 17 a2 bc c0 70 19 bd
       0.033432655 -0.044192888 -0.019786654 -0.037461042
000300 ea 7a f7 bc ba a3 e1 bc 62 9e 52 3c 08 84 1f bd
       -0.030209977 -0.027543891 0.012855144 -0.038944274
000310 4c d0 a3 bc a0 68 22 bd 43 34 3a ba 8c 26 b2 ba
       -0.019996785 -0.03965056 -0.00071031245 -0.001359181
000320 b9 6f c2 ba 72 c9 63 ba a4 c3 7c ba 01 78 eb b8
       -0.0014834321 -0.00086893805 -0.000964219 -0.00011228026
000330 7a ea 04 3b 99 9c 77 bb 59 f4 1a 3a f0 0e af 35
       0.002028136 -0.0037782548 0.00059110444 1.3042863e-06
000340 eb 9c cb 33 4d bb 55 b5 b5 fd c6 b3 af 31 1b b4
       9.481467e-08 -7.962124e-07 -9.2662425e-08 -1.4453575e-07
000350 d0 5e 1d b4 c7 12 3f 35 9c 10 28 36 18 75 78 b5
       -1.4656257e-07 7.118037e-07 2.5043619e-06 -9.2557593e-07
000360 37 6f 43 bb 94 1c 57 3b 57 45 f8 ba b4 94 03 3c
       -0.0029820928 0.003282343 -0.0018941563 0.008031059
000370 ce d4 43 bc 89 f9 a5 bb 66 7e 87 bc fc 23 9f bc
       -0.011952592 -0.0050651473 -0.016539764 -0.019426338
000380 da c1 13 3c e6 0c e6 38 ee 98 9d ba 37 ff 0f ba
       0.009018386 0.00010969657 -0.0012023726 -0.0005493047
000390 b5 33 62 3c 2b 99 7a 3c 0e 6c 90 bc 5c d1 fb 3b
       0.013806273 0.015295307 -0.01762965 0.0076848697
0003a0 16 30 61 bc 81 09 26 3c f5 be e7 b9 5f c6 83 b4
       -0.013744375 0.010134102 -0.00044202027 -2.4544985e-07
0003b0 11 8f 3e 37 ad a0 1b b8 fd 27 6c 38 37 9c 06 35
       1.1358193e-05 -3.710452e-05 5.6304027e-05 5.014621e-07
0003c0 a4 f5 35 39 ec b9 3b b8 1b 85 21 b9 c9 13 46 3c
       0.00017353013 -4.4757428e-05 -0.00015403742 0.012089678
0003d0 ab d2 79 bd ac 9e 05 3d 28 d8 50 bd ee 32 17 bd
       -0.060991924 0.032622024 -0.050987393 -0.036913805
0003e0 21 af d5 3c 63 77 5e bb f8 ef f7 bc c1 45 d8 bc
       0.026084485 -0.0033945672 -0.030265793 -0.026400449
0003f0 69 0b b1 3b ad 70 03 bd 70 78 82 bd 6a 83 43 bd
       0.0054029715 -0.032089878 -0.06370628 -0.047732748

cnn.6.bias f4 [16]
000000 dd 1f 9d 3c ba 81 1a 3d 41 b5 35 b8 fb 28 bd bb
       0.019180233 0.037721373 -4.332257e-05 -0.0057727075
000010 84 ce 5d 3d e1 b2 09 3d 60 54 e2 3b fc 05 7a 3c
       0.054152027 0.033617858 0.006907031 0.015260216
000020 f0 04 dc 3c 95 26 35 3d 23 95 57 3c 71 e0 e3 bc
       0.026857823 0.044226248 0.013158116 -0.027816983
000030 12 eb 8a bc cf 50 de 3c 38 6d 32 3d bb 35 3c 3d
       -0.016957793 0.027138142 0.04356119 0.04594968

fully_connected.0.weight f4 [144]
000000 bd 50 3f 3f 35 16 3f 3f 49 f8 3e 3f 32 52 3f 3f
       0.7473257 0.7464326 0.74597603 0.74734795
000010 a9 6d 3f 3f dd 86 3f 3f fa af 3f 3f 5b 86 3f 3f
       0.74776703 0.7481516 0.74877894 0.74814385
000020 6b 19 3f 3f d5 bb 3f 3f 27 4d 3f 3f 3c 81 3f 3f
       0.7464816 0.74895984 0.747271 0.7480657
000030 d5 4d 40 3f e0 e1 3e 3f 6a 0c 3f 3f 90 1c 3f 3f
       0.7511876 0.7456341 0.7462832 0.7465296
000040 a6 36 3f 3f ca 32 3f 3f 18 0e 3f 3f 27 0e 3f 3f
       0.7469276 0.7468687 0.7463088 0.7463097
000050 18 0e 3f 3f 19 0e 3f 3f 18 0e 3f 3f 18 0e 3f 3f
       0.7463088 0.74630886 0.7463088 0.7463088
000060 18 0e 3f 3f 18 0e 3f 3f 18 0e 3f 3f 62 cc 3f 3f
       0.7463088 0.7463088 0.7463088 0.7492124
000070 06 af 3f 3f 37 3c 3f 3f ab 7a 3f 3f 74 c7 3e 3f
       0.7487644 0.74701256 0.7479655 0.7452309
000080 67 64 3f 3f 03 48 3f 3f c9 26 3f 3f d4 5a 3f 3f
       0.74762577 0.74719256 0.74668556 0.7474797
000090 eb 17 3f 3f 67 31 3f 3f 29 ca 3e 3f 52 02 3f 3f
       0.7464587 0.74684757 0.7452722 0.74612916
0000a0 72 0e 3f 3f 8c a7 3f 3f e4 dd 3e 3f 77 4e 3f 3f
       0.74631417 0.7486503 0.7455733 0.747291
0000b0 77 84 3f 3f 41 90 3e 3f e7 ae 3e 3f 68 3f 3f 3f
       0.748115 0.74438864 0.7448563 0.74706125
0000c0 ad 04 3f 3f 01 90 3f 3f b7 f3 3e 3f 59 f4 3e 3f
       0.7461651 0.7482911 0.7459063 0.74591595
0000d0 6c 13 3f 3f 12 34 3f 3f 8e 8a 3f 3f 95 71 3f 3f
       0.7463901 0.7468883 0.7482079 0.7478269
0000e0 90 de 3f 3f 9a 4d 3f 3f 8e 50 3f 3f dc 09 3f 3f
       0.7494898 0.74727786 0.7473229 0.7462442
0000f0 b0 04 3f 3f 46 ef 3e 3f 68 15 3f 3f ae 45 3f 3f
       0.7461653 0.7458385 0.7464204 0.747157
000100 45 70 3f 3f 0c 0a 3f 3f d0 78 3f 3f 53 5d 3f 3f
       0.74780685 0.74624705 0.7479372 0.74751776
000110 8c 8a 3f 3f d0 4a 3f 3f ba 44 3f 3f bb ef 3e 3f
       0.7482078 0.7472353 0.74714243 0.7458455
000120 08 c8 3e 3f 6d 5f 3f 3f 54 7c 3f 3f 7e e1 3e 3f
       0.74523973 0.74754983 0.74799085 0.74562824
000130 d5 3d 3f 3f 1c e7 3e 3f 4b 9f 3e 3f db 5d 3e 3f
       0.74703723 0.74571395 0.7446181 0.7436196
000140 e5 57 3f 3f f6 b0 3e 3f 54 a8 3e 3f 71 56 3f 3f
       0.7474349 0.7448877 0.744756 0.74741274
000150 f2 96 3f 3f aa 95 3e 3f a0 57 3f 3f aa 9d 3e 3f
       0.748397 0.7444712 0.7474308 0.74459326
000160 47 e5 3e 3f 40 67 3f 3f 11 ae 3e 3f 90 2e 3f 3f
       0.745686 0.7476692 0.74484354 0.74680424
000170 4b ca 3f 3f d3 56 3f 3f e0 66 3f 3f 41 e6 3e 3f
       0.7491805 0.7474186 0.7476635 0.7457009
000180 e0 64 3f 3f 4f 44 3f 3f 29 c0 3e 3f 18 0e 3f 3f
       0.747633 0.74713606 0.74511963 0.7463088
000190 df 11 3f 3f 18 0e 3f 3f 18 0e 3f 3f 2a 1a 3f 3f
       0.74636644 0.7463088 0.7463088 0.746493
0001a0 18 0e 3f 3f 18 0e 3f 3f 18 0e 3f 3f 18 0e 3f 3f
       0.7463088 0.7463088 0.7463088 0.7463088
0001b0 65 0a 3f 3f f1 be 3f 3f 32 75 3f 3f 43 97 3f 3f
       0.74625236 0.7490073 0.747882 0.7484018
0001c0 f8 5b 3f 3f bd fa 3e 3f cb 52 3f 3f ce 15 3f 3f
       0.7474971 0.74601346 0.7473571 0.74642646
0001d0 dc 5d 3f 3f bd 6c 3f 3f 86 b6 3e 3f a9 0d 3d 3f
       0.74752593 0.74775296 0.7449726 0.7384897
0001e0 2a 28 3f 3f 8a 5b 3f 3f 99 1c 3e 3f 3c 6b 3e 3f
       0.7467066 0.7474905 0.74262387 0.74382377
0001f0 ba 05 3e 3f 3a 41 3e 3f 44 26 3f 3f c4 14 3f 3f
       0.7422749 0.7431828 0.74667764 0.7464106
000200 1e 58 3f 3f d1 4c 3f 3f fc 17 3f 3f 84 49 3f 3f
       0.7474383 0.7472659 0.7464597 0.7472155
000210 c3 d3 3e 3f 91 23 3f 3f ab 29 3f 3f 27 2d 3e 3f
       0.7454187 0.74663645 0.74672955 0.74287647
000220 c8 f3 3f 3f 8f b3 3e 3f 27 ee 3d 3f 54 15 40 3f
       0.74981356 0.74492735 0.74191517 0.75032544
000230 d0 26 3f 3f e4 2b 3f 3f bd 53 3e 3f 9d 32 3f 3f
       0.746686 0.74676347 0.74346524 0.74686605

fully_connected.0.bias f4 [144]
000000 e1 f4 e1 b9 a2 6c ad 37 e3 be 74 39 91 04 a6 b9
       -0.00043097793 2.0673793e-05 0.00023340764 -0.0003166539
000010 d8 86 5a b9 d6 d3 80 39 34 e9 2e 39 14 f9 93 b9
       -0.00020840333 0.00024571893 0.00016680808 -0.00028223603
000020 88 c8 72 b9 00 10 40 bb bb b0 84 bb 2b 65 91 bb
       -0.00023153622 -0.0029306412 -0.004049388 -0.004437109
000030 86 cb 38 bb 76 83 94 bb b4 eb ac bb 49 6c 9f bb
       -0.0028197481 -0.004532273 -0.0052771214 -0.0048652035
000040 d2 79 b4 bb b5 e8 58 bb cf 12 ba 35 0c 9c 59 34
       -0.005507686 -0.0033097689 1.3863554e-06 2.026647e-07
000050 39 f3 95 35 49 1d 6f b4 19 3d d1 b3 0f f6 96 b2
       1.1172152e-06 -2.2269263e-07 -9.7434345e-08 -1.7574193e-08
000060 fc 06 7e b4 3a fa 0a 34 14 12 0a 34 4e 4b e1 39
       -2.3658134e-07 1.2943283e-07 1.2858828e-07 0.0004297145
000070 8d e6 34 3b e2 6b 2e 3b 7f 25 21 3b dd 9d 84 3a
       0.002760324 0.0026614596 0.0024589 0.0010117848
000080 6e 88 b7 3a e5 52 d8 3a 30 c3 92 3a 0f 3d 0c 3b
       0.0014002451 0.0016504197 0.0011197086 0.0021398698
000090 c9 38 f5 3a 68 78 1d 3b 24 69 dc 3a 1a 44 c1 3a
       0.001870894 0.0024028067 0.0016816002 0.0014745027
0000a0 b6 8b 15 3a 02 df d8 3a 64 76 50 37 fe 7a 8d b7
       0.00057047175 0.0016545954 1.2425331e-05 -1.6865783e-05
0000b0 ec 46 84 3a 6a 0d 5d 3a f6 6a 71 3b 90 92 dc 39
       0.0010091937 0.000843248 0.0036837435 0.00042070867
0000c0 4b 75 b4 3a e8 83 fe 39 20 55 d1 39 c5 42 e9 3a
       0.0013767866 0.00048544933 0.0003992701 0.0017796388
0000d0 69 6d 10 ba c8 af 8b 3a 66 0f 13 ba 00 c9 ba 3a
       -0.00055094674 0.0010657245 -0.00056098995 0.0014250576
0000e0 5a 95 a8 39 c3 45 b7 3a be 8b bf 3a 60 03 22 3a
       0.00032154733 0.0013982583 0.001461379 0.00061803125
0000f0 de 1e 81 b9 39 94 43 39 c0 b3 a9 39 c9 7c 0d 3b
       -0.00024627795 0.00018651866 0.00032368116 0.002158927
000100 73 f3 da 3a 43 a4 ba 3a e1 07 fa 38 30 31 48 ba
       0.0016704634 0.0014239628 0.000119223965 -0.0007636724
000110 1e 6a 52 39 48 de 65 3a 8c 16 03 3b 68 60 0d 3b
       0.00020066692 0.0008768779 0.0020002453 0.0021572355
000120 ff ba 38 3a 1f 98 3a 3a dc 32 24 b8 52 3d 0e 3b
       0.00070469076 0.0007118005 -3.9148013e-05 0.002170403
000130 36 a2 5d 39 28 97 9a 38 32 de 01 3b 1d 34 39 3b
       0.0002113663 7.371447e-05 0.0019816277 0.0028259822
000140 79 7d 27 3b 3c 17 6a 3a 5f 42 39 3a 34 fc c4 39
       0.0025556965 0.0008929854 0.000706708 0.0003757194
000150 be 61 a3 39 d3 27 01 3b 09 a0 a1 3a 42 95 ed 3a
       0.00031162606 0.0019707575 0.0012331019 0.0018126147
000160 f8 e7 9f 3a f9 61 99 b8 75 3b 16 3b 5e 66 3b ba
       0.0012199869 -7.313857e-05 0.0022923623 -0.0007148738
000170 09 25 88 3a 53 f9 1e 3b e4 79 d3 b9 81 79 58 3a
       0.0010387014 0.0024257496 -0.00040335872 0.00082578516
000180 0a 05 82 b9 d1 ff d6 3a 7a 29 c1 3a fc 7f 9c 33
       -0.00024799287 0.0016403144 0.0014737092 7.287596e-08
000190 d6 41 01 b5 c5 d9 22 34 8c 0e 0d b4 ef d3 97 b2
       -4.815205e-07 1.516665e-07 -1.313694e-07 -1.767509e-08
0001a0 4f ab 15 35 6f fe a1 b2 ca 15 99 35 f7 c5 5f b3
       5.575611e-07 -1.885857e-08 1.140573e-06 -5.210128e-08
0001b0 68 f1 0f 3b 01 0a 03 3b 61 2d f4 3a 47 ac d0 3a
       0.0021963958 0.0019994976 0.0018629247 0.0015920483
0001c0 ff 52 21 3b 2a 89 11 3b dc 91 be 3a d5 9f e4 3a
       0.002461612 0.0022207 0.0014539319 0.0017442653
0001d0 49 a5 86 3a 9e 63 85 bb 4a 1f 7d bb 55 19 99 bb
       0.0010272647 -0.004070713 -0.0038623386 -0.0046722093
0001e0 83 d3 a3 bb 63 89 72 bb 96 7b 91 bb e4 36 ac bb
       -0.0049995794 -0.0037008158 -0.0044397814 -0.005255567
0001f0 6e 64 69 bb f4 b7 95 bb df dc e6 3a d1 de f1 3a
       -0.003561284 -0.004569048 0.0017613432 0.0018453245
000200 b9 8f cb 3a 08 b7 17 b9 a8 a3 06 3b 88 76 97 3a
       0.0015530504 -0.00014468667 0.0020544324 0.0011555711
000210 3f 8a a4 3a b3 69 8e 3a 54 a0 90 39 87 32 17 bb
       0.0012553408 0.0010865241 0.00027585274 -0.0023070888
000220 93 97 d4 ba 17 2a b8 ba 30 cf 83 bb 8e 56 83 ba
       -0.0016219489 -0.001405063 -0.0040225014 -0.0010020302
000230 50 02 21 bb 03 c3 11 bb 7a 34 b1 bb 52 61 76 bb
       -0.0024568029 -0.002224148 -0.005407867 -0.0037594629

fully_connected.0.running_mean f4 [144]
000000 22 91 0d 28 4d c8 24 27 b7 ff 88 01 f1 e8 04 29
       7.858543e-15 2.2868155e-15 5.032544e-38 2.9511932e-14
000010 fb 86 64 2a 78 bc e8 28 87 bc 8e 01 ba 18 8f 01
       2.0297299e-13 2.583891e-14 5.2433085e-38 5.2565385e-38
000020 ce 29 90 01 68 c5 a0 3b f6 68 a0 3b 1f 06 a1 3b
       5.295723e-38 0.004906345 0.004895325 0.00491406
000030 70 d6 9f 3b a0 74 9f 3b 93 2b 9f 3b f3 d7 9f 3b
       0.004877858 0.0048661977 0.0048574894 0.004878038
000040 b8 2c 9f 3b 2d 57 9f 3b 30 9f 82 30 a3 69 a9 00
       0.004857626 0.004862687 9.503989e-10 1.5558094e-38
000050 2f 72 29 30 e8 76 ce 2d f5 fd 30 18 ff 1f 3e 32
       6.1644106e-10 2.3472294e-11 2.2875682e-24 1.1066731e-08
000060 6f 99 0d 2f b6 40 b8 2d 49 2a d8 2d dc 71 ca 3c
       1.2878386e-10 2.0947116e-11 2.4575135e-11 0.024712496
000070 11 94 c9 3c e8 97 c9 3c 10 81 c5 3c 58 15 c4 3c
       0.024606736 0.024608567 0.024109393 0.023935959
000080 00 32 c4 3c de 8e c1 3c 3a 38 c0 3c 15 6e bf 3c
       0.023949623 0.023627695 0.02346431 0.02336792
000090 5d f9 1c 3d 98 a0 1c 3d 6c b9 1d 3d 87 af 1f 3d
       0.03832375 0.03823909 0.03850691 0.038985755
0000a0 59 c7 1e 3d 84 a4 1e 3d 6a 1d 20 3d e5 88 21 3d
       0.03876433 0.038731113 0.03909055 0.039437193
0000b0 97 58 21 3d 24 92 bc 3c 2e 3f bc 3c dd 15 bd 3c
       0.039391126 0.023018904 0.022979345 0.023081714
0000c0 b6 1f be 3c 74 1e be 3c 1e f3 bd 3c fe 49 bf 3c
       0.02320848 0.02320788 0.023187216 0.023350712
0000d0 12 41 c0 3c 09 7e bf 3c e5 a1 e6 3b 3b fe e3 3b
       0.023468528 0.023375528 0.0070383423 0.006957797
0000e0 7d b4 e4 3b 46 3d e6 3b f5 de e5 3b ed ce e4 3b
       0.0069795237 0.0070263473 0.007015104 0.0069826753
0000f0 c9 a6 e9 3b e8 e8 e9 3b c4 7a ea 3b 7d 5a 39 3c
       0.007130478 0.0071383603 0.007155748 0.011313078
000100 a3 e3 39 3c 0f 79 39 3c 44 ab 3b 3c 52 4b 3a 3c
       0.011345777 0.0113203665 0.011454407 0.011370497
000110 4e 97 3c 3c 0e 81 3c 3c ce 5f 3d 3c 2b d3 3c 3c
       0.011510683 0.011505378 0.011558486 0.011524956
000120 93 91 b7 3c ab e3 b6 3c 9d 09 b7 3c 7b 41 b9 3c
       0.022408282 0.022325357 0.022343451 0.022614231
000130 51 4b b9 3c bb b5 b9 3c 2c 7a ba 3c a8 43 bc 3c
       0.022618921 0.022669664 0.022763334 0.02298148
000140 be e6 bd 3c 86 19 0c 3d bf f4 0c 3d 4f d9 0c 3d
       0.023181316 0.03420403 0.034413096 0.03438693
000150 df 06 0e 3d 3f d0 0d 3d 08 2a 0e 3d bb b7 0f 3d
       0.03467452 0.034622427 0.034708053 0.03508733
000160 33 84 0f 3d 11 42 10 3d c7 b6 22 3c bf 36 22 3c
       0.035038184 0.035219256 0.009931273 0.009900748
000170 e2 f7 22 3c 25 68 23 3c 9d 8a 23 3c 35 75 23 3c
       0.009946795 0.00997356 0.009981778 0.009976675
000180 9c 17 24 3c b9 e6 24 3c 1a 4d 26 3c 00 00 00 00
       0.010015395 0.010064774 0.010150218 0.0
000190 a8 02 00 00 00 00 00 00 00 00 00 00 d0 06 00 00
       9.53e-43 0.0 0.0 2.444e-42
0001a0 00 00 00 00 00 00 00 00 00 00 00 00 00 00 00 00
       0.0 0.0 0.0 0.0
0001b0 67 5a 88 3c 22 aa 88 3c a7 82 87 3c 99 5f 85 3c
       0.01664467 0.016682688 0.016541792 0.016280936
0001c0 2a 7e 83 3c 9d 48 85 3c f4 76 80 3c 83 5e 80 3c
       0.01605137 0.016269976 0.015681721 0.015670067
0001d0 65 3a 7d 3c 52 5b 85 3b d8 20 85 3b 30 62 85 3b
       0.015455817 0.004069724 0.004062753 0.0040705428
0001e0 6a c5 84 3b 94 eb 83 3b 4f 0b 84 3b c0 1a 84 3b
       0.004051854 0.004025886 0.0040296684 0.004031509
0001f0 4a c7 84 3b 1d 7d 84 3b 1f 04 ee 3c 2a 6f ee 3c
       0.0040520774 0.004043235 0.0290547 0.029105742
000200 d9 8b ef 3c bb 62 f0 3c dc 4d f0 3c 1c 43 f1 3c
       0.02924149 0.029343953 0.029334001 0.029450946
000210 c9 1c f3 3c 24 4c f4 3c 31 c9 f3 3c 6a 6c 87 3c
       0.029676812 0.029821463 0.029759021 0.016531188
000220 0f bb 86 3c 28 e4 86 3c be 48 89 3c 4b ab 87 3c
       0.016446618 0.016466215 0.016758319 0.016561171
000230 70 26 88 3c 2f 89 89 3c 7b 8b 89 3c 70 df 89 3c
       0.01661989 0.016789047 0.016790142 0.016830176

fully_connected.0.running_var f4 [144]
000000 72 c5 b0 23 3d 07 ba 22 b8 d1 f2 01 db 8c 26 25
       1.916558e-17 5.0423065e-18 8.919769e-38 1.4445929e-16
000010 09 30 2c 27 e0 ee 1c 25 83 78 f2 01 e5 a5 f3 01
       2.3895835e-15 1.3611777e-16 8.9069686e-38 8.950215e-38
000020 a9 0d f4 01 ce 8b 4c 38 7d d2 4c 38 c1 22 4c 38
       8.9651046e-38 4.8767593e-05 4.8833423e-05 4.8669757e-05
000030 39 47 4d 38 4a 83 4d 38 73 cf 4c 38 0e d7 4d 38
       4.894214e-05 4.899808e-05 4.8830592e-05 4.9076094e-05
000040 5b 05 4d 38 2d 6a 4c 38 ed 98 fb 28 a9 36 eb 01
       4.8880796e-05 4.8736274e-05 2.7932919e-14 8.64038e-38
000050 cc 82 89 28 cd 2e 0f 25 fc 58 2b 12 cf 4d a8 2a
       1.526678e-14 1.241913e-16 5.406777e-28 2.9896785e-13
000060 d2 b3 b2 27 0a 2b b4 25 b0 30 7b 24 58 c9 b9 39
       4.9599886e-15 3.1254187e-16 5.446819e-17 0.00035435962
000070 63 58 b0 39 79 b4 b6 39 10 3b ab 39 bd 5a a5 39
       0.0003363519 0.00034848208 0.00032659667 0.00031538858
000080 62 77 9d 39 f8 5a 95 39 7c 26 93 39 3b b9 91 39
       0.0003003432 0.00028487272 0.00028066698 0.00027794563
000090 e8 98 a8 39 9d 51 aa 39 b9 9f a7 39 0d b6 9e 39
       0.0003215738 0.00032485733 0.00031971725 0.00030271747
0000a0 27 58 9c 39 1a 83 9c 39 de cd 91 39 88 5c 95 39
       0.00029820317 0.00029852317 0.00027809938 0.00028488436
0000b0 4f 6f 95 39 f7 79 15 39 e1 63 11 39 b7 6b 12 39
       0.00028502426 0.00014255183 0.00013865485 0.00013963772
0000c0 ca 5c 09 39 1f b8 08 39 a7 3c 08 39 2d cc 03 39
       0.00013099905 0.00013038561 0.00012992565 0.00012569195
0000d0 95 12 04 39 cd fa 02 39 5c e6 6e 38 ed f1 6a 38
       0.00012595423 0.00012491197 5.695816e-05 5.601526e-05
0000e0 4a 12 68 38 4f 16 6e 38 39 63 6e 38 ff 69 6a 38
       5.5330143e-05 5.67644e-05 5.683603e-05 5.5888664e-05
0000f0 9c 0b 70 38 cd 7e 72 38 55 72 73 38 00 e0 d5 37
       5.723127e-05 5.781539e-05 5.8042195e-05 2.5495887e-05
000100 49 6c dc 37 4d f8 d4 37 33 63 dd 37 31 ed d1 37
       2.6276468e-05 2.5387993e-05 2.6391446e-05 2.5025192e-05
000110 2a f7 da 37 e0 b7 d8 37 1e a2 cb 37 c5 23 cb 37
       2.610272e-05 2.583483e-05 2.4274977e-05 2.4216142e-05
000120 55 31 65 39 8a 52 61 39 18 e8 5f 39 67 47 62 39
       0.0002185752 0.0002148842 0.00021353399 0.00021579639
000130 a2 fe 5c 39 64 88 5e 39 24 ec 61 39 dc a4 66 39
       0.00021075693 0.0002122238 0.00021545641 0.00021995924
000140 1b d4 66 39 26 8c 85 39 8d f4 89 39 1c 5a 87 39
       0.00022013525 0.00025472156 0.0002631288 0.00025816343
000150 0f 91 80 39 ee c5 7d 39 e1 43 7f 39 c8 25 6f 39
       0.0002452214 0.00024201695 0.00024343982 0.00022806891
000160 95 54 6f 39 82 c3 6f 39 1d 1a 1b 38 00 3d 1a 38
       0.00022824325 0.00022865648 3.69792e-05 3.6773272e-05
000170 bd 3d 1a 38 bf 35 12 38 2d c3 13 38 ee ac 10 38
       3.677396e-05 3.4859167e-05 3.5229303e-05 3.449333e-05
000180 7c 0d 0f 38 4f 95 0f 38 e6 3f 11 38 77 27 eb 01
       3.4106415e-05 3.423291e-05 3.4630204e-05 8.6381996e-38
000190 77 27 eb 01 77 27 eb 01 77 27 eb 01 77 27 eb 01
       8.6381996e-38 8.6381996e-38 8.6381996e-38 8.6381996e-38
0001a0 77 27 eb 01 77 27 eb 01 77 27 eb 01 77 27 eb 01
       8.6381996e-38 8.6381996e-38 8.6381996e-38 8.6381996e-38
0001b0 78 b6 82 39 29 5d 81 39 f5 fa 81 39 95 6c 64 39
       0.00024931482 0.00024674207 0.00024791775 0.00021784224
0001c0 be 06 63 39 07 d3 6a 39 33 f8 4a 39 ed fa 4d 39
       0.00021650919 0.00022394593 0.00019356683 0.000196438
0001d0 f1 31 4c 39 dc d0 0c 38 d4 b6 0b 38 64 a9 0b 38
       0.0001947356 3.3573117e-05 3.3310454e-05 3.329794e-05
0001e0 30 e8 0b 38 10 c2 0b 38 18 66 0b 38 1d 4e 0b 38
       3.3356424e-05 3.3320917e-05 3.3235265e-05 3.321293e-05
0001f0 8b 6d 0b 38 51 a1 0c 38 ae 9b 26 39 b8 ed 26 39
       3.3242202e-05 3.352884e-05 0.00015888989 0.00015919551
000200 11 ec 22 39 c9 94 19 39 63 93 16 39 da ad 17 39
       0.00015537466 0.00014646644 0.0001436002 0.00014465247
000210 c7 49 0b 39 50 44 0a 39 cb 80 0a 39 58 0a 82 39
       0.00013283557 0.00013186154 0.00013208685 0.0002480324
000220 f9 4d 82 39 a1 04 83 39 88 0b 81 39 49 c1 7f 39
       0.00024853626 0.00024989716 0.0002461339 0.000243907
000230 1a f3 7f 39 b2 f9 80 39 6f 53 80 39 c1 77 7f 39
       0.00024409257 0.000246001 0.00024476225 0.00024363307

fully_connected.1.weight f4 [80, 144]
000000 29 46 9f b7 ea 41 54 b6 af 11 9f 3a e9 95 e3 b6
       -1.8986948e-05 -3.1628829e-06 0.0012136007 -6.782579e-06
000010 c9 01 85 37 46 da 3d b9 70 b7 26 b5 cb b9 43 3b
       1.5855667e-05 -0.00018105758 -6.2106756e-07 0.002986538
000020 f9 a9 a7 ba 50 2d 9b ba 63 c9 43 ba f9 b5 05 ba
       -0.0012791745 -0.0011839066 -0.00074686686 -0.00051006634
000030 1e 67 5a b8 94 84 f6 b9 87 5f 2d bb d0 9f da ba
       -5.2071286e-05 -0.00047019555 -0.0026454644 -0.0016679708
000040 91 ef cb 3a 2a 37 15 39 f7 23 66 35 6f e9 5b 35
       0.0015559067 0.00014230298 8.573401e-07 8.192355e-07
000050 ab 14 86 35 9c 20 f3 33 ab 4f 7d 32 0b 3d 58 35
       9.989793e-07 1.1321501e-07 1.4744653e-08 8.05551e-07
000060 cb 14 84 33 18 18 b5 35 f1 43 a6 31 22 ce 85 bb
       6.150511e-08 1.3492563e-06 4.83896e-09 -0.004083411
000070 2c c4 17 bb 1e f3 9a 3b 15 45 01 bc 7c ea 7e bb
       -0.00231577 0.004728689 -0.007890006 -0.0038897088
000080 38 fc 9d bb 1a 3c 27 3b 5a 5d 11 3b 32 de fa bb
       -0.0048213266 0.0025518 0.0022180886 -0.0076558823
000090 cc ca ae b9 60 9a 01 3b 57 5b 6e 3a 52 2b db ba
       -0.00033338962 0.0019775853 0.000909259 -0.0016721284
0000a0 80 04 9d bb 51 ba 34 ba 43 58 07 3c d7 37 c3 3b
       -0.004791796 -0.00068942184 0.008260789 0.0059575844
0000b0 08 54 f1 3b a6 ad d7 3a db d4 d1 ba 52 c6 4c 3b
       0.0073647536 0.001645495 -0.001600887 0.0031246138
0000c0 2e 01 5b 3b fa b9 45 3b ce 52 91 3b be 0f 6b 3b
       0.0033417451 0.0030170665 0.00443492 0.0035867537
0000d0 33 f5 ca b9 2d 7d a4 3b 4a f9 6e bb 34 77 e2 3a
       -0.0003871113 0.005019805 -0.0036464506 0.0017277957
0000e0 97 6e 70 3a 1b 46 2b 3b cd 11 84 bb 2d 29 ba 3a
       0.00091717526 0.0026134315 -0.0040304423 0.0014202945
0000f0 d4 26 1d 3b 5f b9 4c 3b c4 4f 46 3b 80 36 67 ba
       0.0023979442 0.003123842 0.0030259946 -0.0008820072
000100 0d 7b 03 ba 6d 53 a0 3b b5 a8 bb 38 30 f2 1e bc
       -0.00050155894 0.0048927576 8.948279e-05 -0.009701297
000110 3a 8b a8 bb f7 c1 92 3a 91 8e f4 3b 96 a2 16 3a
       -0.00514355 0.0011196722 0.0074632843 0.0005746273
000120 24 aa ad 3b a0 f9 56 3b 3a 35 fe 3b 4f 94 04 bb
       0.0052998234 0.0032802597 0.00775781 -0.002023
000130 9d 4b 80 ba 2c bf 9a 3a 89 05 73 3b e0 a1 99 3b
       -0.000978816 0.0011806241 0.0037082157 0.0046884865
000140 41 05 d2 3b 3b 61 19 3c 35 5e 3d 3b 2d bf 9b 3b
       0.0064093177 0.00936156 0.0028895263 0.0047530145
000150 74 b1 ab ba cb 88 50 39 dd 0f ad ba 09 c1 05 b8
       -0.001309915 0.00019887385 -0.001320358 -3.188945e-05
000160 0c f1 a8 3b 05 12 79 3b 60 9e e8 b9 1f 50 3b 3a
       0.005155688 0.0038005125 -0.00044368487 0.0007145423
000170 9e d9 d3 bb c1 00 75 bb eb dc e1 39 c4 67 47 bb
       -0.006465151 -0.0037384483 0.0004307994 -0.003042684
000180 3f 5b 8c 3b 3b bc d5 ba de 33 08 3b ac 42 dd b3
       0.0042833383 -0.0016306707 0.0020782868 -1.0303242e-07
000190 5c 5a 0c 34 a9 8f 35 b4 b1 a5 78 b3 09 a6 4c 34
       1.3071389e-07 -1.6909202e-07 -5.7892695e-08 1.9059384e-07
0001a0 a5 25 1c b5 97 3b 12 b0 a0 0b c6 b2 f6 3f 09 2f
       -5.816931e-07 -5.3199173e-10 -2.305552e-08 1.2482801e-10
0001b0 f2 51 bc bb c8 86 e8 bb 03 65 89 ba 4e b3 0f bb
       -0.0057470733 -0.0070961453 -0.0010482374 -0.0021926942
0001c0 49 67 b1 bb 1c 08 9d ba 8b a2 02 bc cc eb 61 3b
       -0.005413924 -0.0011980566 -0.007973324 0.0034472821
0001d0 2f 99 23 3b e6 45 2f 39 0f 7a 21 b9 05 fa 90 b9
       0.002496313 0.0001671534 -0.00015399627 -0.000276521
0001e0 81 cf c1 b8 6c 16 99 39 6f e0 c1 38 d8 76 83 39
       -9.241608e-05 0.0002919914 9.244761e-05 0.00025074813
0001f0 f1 83 80 3a 08 5d 61 3a 82 a0 06 3b 4c 2d 0e ba
       0.0009804947 0.00085969316 0.0020542447 -0.000542362
000200 3f d3 22 b9 d9 94 8a 3b 75 2a d4 bb 94 5c e1 3a
       -0.00015528219 0.00422917 -0.006474788 0.0017193728
000210 ba 65 90 3b f8 51 10 3c 6d 6c bf 3b 33 6d 37 bc
       0.004406658 0.008808605 0.005841783 -0.011195469
000220 30 79 30 bc 4d 3c 38 bc 5f 7b 1a bc 9c 1f 54 bc
       -0.010771081 -0.011244846 -0.009428828 -0.012946989
000230 79 cb 5f bc e0 e4 40 bc 41 d0 fa bb bf 05 40 bc
       -0.0136593515 -0.011773318 -0.0076542203 -0.01172012
000240 f0 90 3c b5 ea 44 6c 35 1a 09 36 35 b6 d4 cf 34
       -7.024637e-07 8.8017134e-07 6.781353e-07 3.8711522e-07
000250 1b b3 c1 34 e5 37 d9 b5 a8 5a c3 b4 07 c7 04 b5
       3.6079368e-07 -1.6184027e-06 -3.6387542e-07 -4.9463455e-07
000260 e2 c1 7e b3 c7 e6 44 b9 ff 47 98 ba 00 be 11 b8
       -5.931532e-08 -0.00018777988 -0.0011618136 -3.4747645e-05
000270 0c 21 81 ba bb fb 9e ba 38 21 ce ba e7 1b 2a 3a
       -0.0009851768 -0.0012129465 -0.0015726453 0.0006489143
000280 53 74 a5 ba 71 13 6a 38 f3 65 a3 b3 7d 40 15 35
       -0.0012623168 5.5808054e-05 -7.6088234e-08 5.560067e-07
000290 75 e8 0e b4 a4 3c 15 b5 b2 ac 34 b3 d1 63 7b 34
       -1.3309348e-07 -5.559507e-07 -4.206658e-08 2.341251e-07
0002a0 2a 66 99 b5 94 b6 11 b4 5a 02 85 33 69 19 4d 3b
       -1.1429122e-06 -1.3570599e-07 6.193723e-08 0.0031295663
0002b0 86 dd f7 ba dd df 4f 3c f7 c4 d0 bb 02 13 bf bb
       -0.0018910624 0.0126876505 -0.0063711363 -0.0058311233
0002c0 2f 76 a1 3b 39 22 f1 ba 52 9e 20 bc 26 74 e0 bb
       0.0049274187 -0.001839704 -0.0098033715 -0.0068497835
0002d0 61 47 28 3c a0 fd ed 3b 7e 6d d2 3b 98 f1 22 3b
       0.010270924 0.0072629005 0.006421744 0.002486324
0002e0 60 b3 c2 3a b9 6f c4 3b 33 db c1 3b 0b f4 b7 3b
       0.0014854483 0.0059947637 0.005916023 0.005613809
0002f0 b2 11 d5 3b 0a a6 e5 3b 21 63 93 3b 8c 08 a5 3b
       0.0065023536 0.007008319 0.004497901 0.0050364193
000300 44 9d 6e 3b 9b 05 00 3b 5e c9 3f 3a d4 18 29 3b
       0.0036409656 0.001953459 0.0007316078 0.0025802152
000310 0a 8a 62 3b 00 70 d0 3b ce 00 87 3a 12 26 cb 3b
       0.003456714 0.0063610077 0.0010299922 0.0061996067
000320 67 00 df 3b 69 2f 15 3b 8b 08 11 bb 58 a3 af b9
       0.006805468 0.0022763854 -0.0022130336 -0.00033500302
000330 1d a4 48 ba a9 8a 3d bb 8c 83 89 bb 7b b2 5b 3a
       -0.00076538493 -0.002892176 -0.00419659 0.00083807827
000340 4d c0 80 3a d8 d7 94 3a 81 f2 44 3b ad a8 91 ba
       0.0009822935 0.001135583 0.003005177 -0.0011112891
000350 72 66 4a 3b d2 1a 95 3b 38 af c4 b9 33 74 4a 3a
       0.0030883816 0.0045503164 -0.0003751458 0.00077230035
000360 ca fa 03 3c 64 ff 9d 3b 38 fe fe 3b 8c 37 02 ba
       0.008055398 0.0048217047 0.00778177 -0.00049673836
000370 3e 7e 4e ba f3 55 37 3a 61 58 00 3b a7 1d c0 3b
       -0.0007877088 0.00069937034 0.0019583928 0.00586291
000380 e1 02 2b 3b f8 6a 2f 3c de cc d2 3b 82 59 c4 3b
       0.0026094245 0.010706656 0.0064331135 0.0059921155
000390 7d ae 37 b9 ad d2 0b 3b 2a 6b 61 3b 38 94 7f 3b
       -0.00017517242 0.002133529 0.003439615 0.0038998257
0003a0 97 72 b7 38 d4 c0 d7 b9 00 ae ad 3b e9 41 d9 3b
       8.747464e-05 -0.00041151664 0.0053002834 0.0066301716
0003b0 fe 5f c3 3b 04 6d 8d 3b 3e e3 4b 3b 27 ac 41 ba
       0.005962371 0.004315974 0.0031110789 -0.00073880184
0003c0 66 cd a4 3a 64 87 27 3b 8d 2d 73 b8 47 34 7c 33
       0.001257342 0.0025562877 -5.7978137e-05 5.8720868e-08
0003d0 79 cd c5 33 72 ea b6 32 54 ab 1e 33 6f 8f 2c 33
       9.2109026e-08 2.1294202e-08 3.6943064e-08 4.0177323e-08
0003e0 03 6e a0 33 c9 32 28 b3 da 72 38 36 2e 2b 14 34
       7.4705916e-08 -3.9161737e-08 2.748499e-06 1.3799283e-07
0003f0 47 c5 63 3b a4 a0 85 3a 0d d0 27 3b 73 5e 90 bb
       0.0034755038 0.0010194969 0.0025606186 -0.0044057905

fully_connected.1.bias f4 [80]
000000 d5 c1 fd b8 0a 0f 10 3b 54 39 58 bb 26 84 93 3b
       -0.00012100084 0.002198162 -0.0032993155 0.0045018373
000010 24 72 b4 bb fd af a0 bb 43 a2 9f 3a 2a 77 b8 ba
       -0.0055067707 -0.004903792 0.0012179095 -0.00140736
000020 a9 71 27 3b e8 67 78 bb d3 c6 0d bc 16 80 29 3c
       0.0025549924 -0.003790373 -0.00865336 0.0103454795
000030 73 a9 0c bc e5 80 0e 3b c9 94 df bb a6 11 e0 3b
       -0.008585322 0.0021744308 -0.0068231565 0.0068380414
000040 15 f7 08 b8 be 33 a3 3c a8 fe 9e 3b 81 76 b7 bb
       -3.265504e-05 0.019922134 0.0048521347 -0.0055988436
000050 83 e6 da 3b a9 04 73 bc a4 5b a0 bb 02 10 11 bc
       0.006680311 -0.014832654 -0.004893737 -0.008853914
000060 f1 f8 26 bb 47 ad 9f 3a 39 e1 5b 3b d6 06 a9 bb
       -0.002547797 0.0012182378 0.0033550991 -0.0051582856
000070 fa 96 8d 3a 25 23 0c 3c e7 11 71 bc 02 e1 7f 3b
       0.0010802441 0.008553301 -0.014713741 0.0039044027
000080 c2 da cd 39 4d e7 09 3b a7 71 fb bb a4 24 8a bb
       0.00039263634 0.0021042407 -0.0076734605 -0.0042157937
000090 83 fb 00 ba b5 56 a8 bb 9d 71 c1 3b 73 bd c7 3b
       -0.00049202907 -0.0051372894 0.0059034363 0.006095582
0000a0 fc 4e f5 bb 3f 1d 74 3b 2a a0 38 ba 70 1c ea 3b
       -0.0074862223 0.0037248877 -0.0007042909 0.0071445033
0000b0 de dc c2 3a f1 33 2e bb 2e e5 69 3b c4 47 c9 ba
       0.0014866849 -0.0026581252 0.003568958 -0.0015356471
0000c0 ae 50 e4 3a 2a 17 2c ba 4f dd a7 3b 48 1e 40 bc
       0.0017419064 -0.0006564731 0.0051228176 -0.01172597
0000d0 55 c1 24 3b c8 d8 06 bd 25 d7 2c bc 12 1e 60 3c
       0.002513965 -0.032921582 -0.010549341 0.013679044
0000e0 9c 54 d6 ba 3d 2e 18 ba cb a7 44 3b db a3 0e bc
       -0.001635212 -0.000580523 0.003000724 -0.008706058
0000f0 07 76 8d ba 2d 36 fb ba ee f0 d2 bb 07 8b 49 3b
       -0.0010792621 -0.0019165926 -0.0064374125 0.0030753033
000100 83 47 da bb 6b a5 07 bc 1e 52 b8 bb a4 f9 3c bb
       -0.006661357 -0.008279185 -0.0056250235 -0.002883532
000110 6f 13 a2 3b b2 10 be 3b d3 90 89 bc 00 9c 96 bb
       0.0049461643 0.00580033 -0.01679269 -0.0045962334
000120 ae 90 88 3a c4 84 47 bb c4 4c 99 3c aa ad 82 bc
       0.0010419094 -0.0030444125 0.018713363 -0.01595195
000130 91 b1 06 3b f9 e0 4e bb 95 17 19 3b 6d 22 d9 b7
       0.0020552615 -0.00315672 0.0023360003 -2.5884447e-05
