data/checkpoint/model_16_1.41.pth (torch, 188067 bytes, 18 tensors)

cnn.0.weight f4 [20, 1, 5, 5]
-0.09893697 0.020666052 -0.18888703 -0.08423593 -0.19769791 0.10625856 -0.14029896 0.15945236
0.16357791 -0.19104806 0.03546808 -0.11806124 -0.13595454 -0.013299919 -0.13672869 2.2530556e-05
-0.19688943 -0.15495491 -0.050469756 0.11875129 -0.08032024 0.0126519445 0.17008863 0.1055512
-0.18751958 -0.15538254 0.12716721 -0.15796554 -0.07205901 0.14628947 0.14415276 -0.096714854
0.19953609 -0.05704794 0.05766487 0.003932476 -0.030629922 0.1172313 0.008556438 0.07974374
-0.1674385 0.019073868 0.15480004 -0.14464298 -0.10579529 -0.0025014877 -0.19616488 0.090080835
0.107976556 0.14044373 0.08136761 0.034419466 0.048569392 -0.08702438 0.0057231905 0.012068081
-0.00032422543 -0.05423758 -0.038350847 0.091566734 -0.1390616 0.067681335 0.14063351 0.14529465
-0.08171308 -0.10980339 0.0124722 -0.06737607 0.025942637 -0.07238932 0.0006896496 -0.1765834
0.054101706 -0.12978192 -0.07031584 -0.10307169 -0.0063543557 -0.022417331 -0.058427762 0.085440375
-0.16715634 0.19476736 0.037659526 -0.11355889 0.19465415 0.15656316 -0.001009345 0.091205955
-0.1499896 0.058065962 -0.056911636 -0.08768263 -0.019463515 -0.011435795 0.12789206 0.14135285
-0.0024991513 -0.17146547 0.022602702 -0.008285284 0.017607212 0.12803034 0.06286843 -0.025305439
0.08215678 -0.09677978 0.12122011 -0.0917136 0.010985923 -0.092331246 0.0979239 -0.004906869
-0.06686993 0.18035714 -0.078608654 -0.17268403 -0.07575629 0.031989407 -0.028494095 -0.08224833
0.115059756 -0.056019615 -0.10628968 0.15996312 0.078301884 0.15094264 -0.14855516 -0.014874292
0.16053438 0.10704978 -0.15812592 -0.11322482 0.19252534 -0.16538207 0.14089143 -0.13551228
0.08172057 0.10481756 0.17448092 0.15296726 0.0055915834 0.017886186 -0.09296479 -0.13047667
0.04845071 -0.12012112 0.08716869 0.07094109 0.106415465 -0.0035666705 0.020796657 0.12117758
-0.11352918 0.013429689 -0.040111925 -0.18644698 -0.10664101 0.1210042 0.1514453 -0.060962558
-0.17939389 -0.059435915 -0.14816673 -0.08378997 -0.19243589 -0.18136494 -0.0097759245 -0.14273918
0.12117453 0.092267685 -0.122032836 0.13601764 -0.028200079 0.07282789 -0.017474342 -0.046923637
-0.05723102 0.06702139 0.024080707 -0.14147031 0.17169721 0.1343607 0.13291271 -0.18820284
0.0074360133 0.14396742 0.17329 -0.19467011 0.07267981 0.034558155 -0.08683985 0.15054834
-0.17001759 -0.0858614 0.19988719 -0.1962225 0.09887367 -0.11182709 0.13962236 0.19430315
-0.19101529 0.14513877 0.1468765 0.08103769 0.18798847 -0.1697882 0.1800843 -0.12497957
-0.008230734 -0.17171876 0.003242159 0.10531578 -0.19573255 -0.10125881 -0.004223037 -0.13907097
-0.05671778 -0.11060126 -0.15429537 0.1393849 0.13866067 0.07474744 -0.060839057 -0.12377717
0.12525702 0.037599444 -0.07659531 -0.14482129 -0.0027807236 -0.12372851 0.020451164 -0.1955338
0.07550645 -0.10288198 0.041485976 0.0069051026 -0.06974168 -0.17324069 0.03080504 -0.06311574
0.07683301 -0.17781869 0.03219507 0.15799907 -0.04908805 0.0924953 0.09523173 0.0945879
0.109889746 0.09631963 0.011204458 0.1405777 0.18433931 -0.101918034 0.15842958 -0.098334074
00000000: 779f cabd da4b a93c 9a6b 41be e383 acbd
00000010: 5271 4abe 179e d93d 88aa 0fbe 7b47 233e
00000020: f880 273e 1aa2 43be fa46 113d 17ca f1bd
00000030: ab37 0bbe e7e7 59bc 9b02 0cbe 0000 bd37
00000040: 629d 49be 80ac 1ebe 60b9 4ebd e033 f33d
00000050: f07e a4bd 1a4a 4f3c b72b 2e3e 3a2b d83d
00000060: 2205 40be 9a1c 1fbe 1f38 023e b8c1 21be
00000070: ad93 93bd e8cc 153e c89c 133e 7012 c6bd
00000080: 3053 4c3e 1aab 69bd 0032 6c3d 00dc 803b
00000090: 9aeb fabc f716 f03d 4d30 0c3c b050 a33d
000000a0: 0075 2bbe cd40 9c3c e783 1e3e 4a1d 14be
000000b0: 33ab d8bd 00f0 23bb 72df 48be 4d7c b83d
000000c0: d022 dd3d 7bd0 0f3e 10a4 a63d 6dfb 0c3d
000000d0: b3f0 463d d739 b2bd 9a89 bb3b 33b9 453c
000000e0: cdfc a9b9 3a28 5ebd c715 1dbd 5787 bb3d
000000f0: 2a66 0ebe 839c 8a3d 3b02 103e 1fc8 143e
00000100: 3059 a7bd 9ae0 e0bd 3358 4c3c 77fc 89bd
00000110: a785 d43c da40 94bd 9ac9 343a 47d2 34be
00000120: c099 5d3d 8de5 04be c001 90bd 4017 d3bd
00000130: 3338 d0bb 8da4 b7bc f351 6fbd 5dfb ae3d
00000140: 082b 2bbe 1871 473e e040 1a3d 9091 e8bd
00000150: 6b53 473e 1852 203e 004c 84ba 30ca ba3d
00000160: e096 19be 93d6 6d3d 2d1c 69bd f392 b3bd
00000170: f371 9fbc 335d 3bbc 23f6 023e cdbe 103e
00000180: cdc8 23bb a594 2fbe 4d29 b93c 00bf 07bc
00000190: 003d 903c 631a 033e 2ac1 803d 5a4d cfbc
000001a0: d041 a83d 7a34 c6bd 4042 f83d 57d4 bbbd
000001b0: 4dfe 333c 2a18 bdbd 538c c83d cdc9 a0bb
000001c0: 1af3 88bd 8baf 383e 93fd a0bd 15d4 30be
000001d0: 1d26 9bbd 5307 033d 736c e9bc d071 a8bd
000001e0: 73a4 eb3d d374 65bd 67ae d9bd 5fcd 233e
000001f0: bd5c a03d b590 1a3e d81e 18be 4db3 73bc
00000200: 2063 243e ea3c db3d c3eb 21be 6ae2 e7bd
00000210: 5d25 453e eb59 29be d845 103e bbc3 0abe
00000220: 1d5d a73d 97aa d63d 20ab 323e 73a3 1c3e
00000230: 9a39 b73b 0d86 923c 5364 bebd ad9b 05be
00000240: 4074 463d 1002 f6bd 8085 b23d 9049 913d
00000250: 5af0 d93d cdbe 69bb c05d aa3c f32b f83d
00000260: fd81 e8bd 3308 5c3c 674c 24bd f5eb 3ebe
00000270: 9a66 dabd 0dd1 f73d 7a14 1b3e e0b3 79bd
00000280: 08b3 37be 1373 73bd 05b9 17be 139a abbd
00000290: ea0d 45be bbb7 39be 332b 20bc 382a 12be
000002a0: 5a2a f83d d7f6 bc3d 5aec f9bd 3548 0b3e
000002b0: da03 e7bc ca26 953d 5a26 8fbc 0033 40bd
000002c0: 136b 6abd 8342 893d e744 c53c 98dd 10be
000002d0: 65d1 2f3e da95 093e 451a 083e 3fb8 40be
000002e0: cda9 f33b 326c 133e ef72 313e 9a57 47be
000002f0: 27d9 943d da8c 0d3d 17d9 b1bd 5829 1a3e
00000300: 1719 2ebe 1ad8 afbd 3aaf 4c3e 8dee 48be
00000310: 477e ca3d 9a05 e5bd 2af9 0e3e 68f7 463e
00000320: 8399 43be 429f 143e cb66 163e 17f7 a53d
00000330: 0d80 403e f5dc 2dbe 0568 383e 4af5 ffbd
00000340: 33da 06bc 0bd7 2fbe 677a 543b cdaf d73d
00000350: 1d6e 48be c760 cfbd 6761 8abb 9f68 0ebe
00000360: e750 68bd ea82 e2bd 9bff 1dbe eaba 0e3e
00000370: 10fd 0d3e 3015 993d 6032 79bd e37e fdbd
00000380: 6043 003e e001 1a3d 00de 9cbd 084c 14be
00000390: cd3c 36bb 6065 fdbd 3389 a73c 033a 48be
000003a0: 20a3 9a3d cab3 d2bd 33ed 293d 3344 e23b
000003b0: bad4 8ebd 0266 31be da5a fc3c d342 81bd
000003c0: a05a 9d3d 1a16 36be fade 033d 82ca 213e
000003d0: 8d10 49bd 2d6e bd3d da08 c33d 4db7 c13d
000003e0: e00d e13d 3a43 c53d e792 373c 9af3 0f3e
000003f0: 72c3 3c3e 67ba d0bd 5d3b 223e 6063 c9bd

cnn.0.bias f4 [20]
0.14383991 0.07655861 0.1317418 -0.18929474 0.12240143 -0.09348156 0.07144129 0.0406456
-0.051261187 0.0064471248 0.18697432 -0.13184719 0.009224988 0.16263358 0.15301915 -0.027870942
-0.13118331 -0.0008257151 0.13769162 -0.004707718
00000000: c54a 133e c3ca 9c3d 53e7 063e 7bd6 41be
00000010: 9aad fa3d 4373 bfbd d04f 923d 007c 263d
00000020: 40f7 51bd 6742 d33b 3276 3f3e f302 07be
00000030: 6724 173c 6b89 263e 0db1 1c3e 9a51 e4bc
00000040: eb54 06be cd74 58ba 08ff 0c3e 3343 9abb

cnn.3.weight f4 [16, 20, 4, 4]
0.050847992 0.004815008 0.012561124 0.007695989 -0.053026948 0.013842538 0.052239344 -0.03132198
-0.03548729 -0.045533318 0.017706325 0.037781257 -0.03324899 0.044024583 -0.018882789 0.015023053
0.020617055 0.008435987 -0.013799915 -0.049776662 -0.011096323 -0.02417132 -0.055692177 0.04510457
0.036537495 0.00084061053 0.0076193265 0.017426532 -0.0034931498 0.016856 0.012851421 -0.030554581
-0.0070138485 -0.05102369 -0.04134691 0.011450907 -0.03338738 0.0330416 0.02423155 0.009895016
0.016772779 0.001051826 0.023308447 -0.036049057 0.02207268 -0.030537834 -0.020549076 -0.006653906
-0.0011429229 -0.043529388 -0.014134048 0.012866802 0.006059357 0.0022387782 0.03178717 0.004332474
0.013476584 0.019432222 -0.022768075 0.013973366 -0.047917258 -0.037107214 -0.006742424 -0.0013364255
-0.018569054 -0.04178182 0.012448489 -0.055245593 0.016241565 -0.035851803 -0.042360708 -0.04063694
0.041488174 0.050876483 -0.012604886 -0.040333945 0.015087027 0.052944187 -0.04765221 -0.041628327
0.0015700122 0.013565922 -0.025026172 0.04206634 -0.01319563 -0.02313155 0.0067567914 0.025401441
-0.036545 0.046830267 0.005917427 0.013642171 -0.004453506 -0.015804393 -0.018212063 -0.0071322345
-0.040331833 0.0013232775 -0.009048262 0.03685746 0.014197969 0.040239356 0.05263305 0.053931534
0.017697763 -0.031321988 -0.027546998 0.0027666604 0.02769 0.053237516 -0.022179358 -0.015536128
-0.04792791 0.017621987 -0.031100957 0.0053702258 -0.05423964 0.03406056 -0.021945605 0.016539486
0.04269965 -0.033195034 -0.029269502 -0.05142675 -0.019209538 0.037664484 0.049783986 0.03845918
0.04373842 -0.0015467615 0.023037214 0.0027192193 -0.02592486 -0.03292712 0.052950766 -0.050873708
-0.02686451 -0.043907475 -0.007621146 0.0011175264 -0.044886876 -0.0033480346 -0.00043695193 -0.006730515
0.026800722 0.03562576 -0.02396509 0.038267616 0.03951397 -0.014934574 -0.029510893 -0.037267044
-0.029236356 0.023220321 -0.0061351266 -0.0023399775 0.0173882 0.0023615956 -0.03992627 0.024806134
0.0398418 -0.035396118 -0.051117525 0.043674022 -0.038588803 0.021865476 0.02933451 -0.0294234
0.000108263375 -0.008321925 -0.04704233 0.04425635 0.0515879 -0.052941795 0.023958113 0.051303737
0.0062123025 0.0043930565 -0.0128473025 0.0527622 -0.030779857 0.024342433 -0.0036645213 0.04799376
-0.009687093 0.028495692 0.027454434 0.019135274 -0.004012835 0.05051778 0.03439765 -0.034303203
-0.0006264628 0.00028641213 0.038792074 -0.020826839 -0.03232136 0.05407261 0.029277686 0.008069713
-0.034137104 0.02302374 -0.020459931 -0.008801587 -0.018077144 0.0056919237 -0.03090868 0.010954473
0.0543659 -0.014767028 0.012590632 -0.02049969 -0.04356682 -0.009503913 -0.03842109 0.045736782
0.023376498 -0.0030842267 -0.008565735 -0.035432145 -0.04294758 0.042121008 0.039910827 0.021923874
0.045959048 -0.04940004 0.037392907 -0.0024209986 -0.0028735974 0.02416357 0.049301066 -0.020435754
-0.021803373 0.04923222 0.039482825 0.0464682 -0.0334586 -0.020200102 -0.010507198 -0.013468707
0.0340084 0.045550164 -0.011799775 -0.013410791 0.01087863 -0.03729196 -0.014259311 -0.052281845
0.0085644685 0.05457255 0.032948196 -0.04920075 -0.053301726 0.03756916 0.010265888 0.031840812
00000000: fc45 503d 37c7 9d3b 2ccd 4d3c a32e fc3b
00000010: c932 59bd d0cb 623c ecf8 553d 7a4b 00bd
00000020: 1f5b 11bd 2581 3abd db0c 913c 85c0 1a3d
00000030: 1830 08bd 1f53 343d 14b0 9abc 4023 763c
00000040: 19e5 a83c 1837 0a3c 0a19 62bc 9de2 4bbd
00000050: 5acd 35bc ef02 c6bc 7b1d 64bd 92bf 383d
00000060: 57a8 153d 6b5c 5c3a 8bab f93b 16c2 8e3c
00000070: 54ed 64bb 9815 8a3c c48e 523c 9a4d fabc
00000080: 6dd4 e5bb 37fe 50bd 615b 29bd 969c 3b3c
00000090: 35c1 08bd a156 073d 3e81 c63c b51e 223c
000000a0: 1167 893c 6ddd 893a 5bf1 be3c 2da8 13bd
000000b0: c4d1 b43c 7b2a fabc 8956 a8bc 0209 dabb
000000c0: 21ce 95ba df4b 32bd 7e92 67bc 47cf 523c
000000d0: 928d c63b 77b8 123b 4333 023d 6df7 8d3b
000000e0: e4cc 5c3c 5330 9f3c 1d84 babc 8bf0 643c
000000f0: e344 44bd bcfd 17bd 8def dcbb 002b afba
00000100: 211e 98bc 6a23 2bbd bff4 4b3c 3449 62bd
00000110: 080d 853c 57d9 12bd 6c82 2dbd ec72 26bd
00000120: 81ef 293d dc63 503d b984 4ebc 3535 25bd
00000130: 942f 773c 01dc 583d f72e 43bd 7782 2abd
00000140: dec8 cd3a 9a43 5e3c b003 cdbc c14d 2c3d
00000150: 7c32 58bc 607e bdbc 1368 dd3b af16 d03c
00000160: 36b0 15bd 18d1 3f3d fae6 c13b 6a83 5f3c
00000170: b7ee 91bb 3778 81bc 7731 95bc 85b5 e9bb
00000180: fe32 25bd d371 ad3a 293f 14bc d9f7 163d
00000190: 999e 683c 06d2 243d c195 573d 50e7 5c3d
000001a0: e6fa 903c 7c4b 00bd 3eaa e1bc dc50 353b
000001b0: 24d6 e23c 950f 5a3d 7cb1 b5bc 3e8b 7ebc
000001c0: 0e50 44bd fc5b 903c 6fc7 febc b8f8 af3b
000001d0: 622a 5ebd 1683 0b3d 45c7 b3bc d17d 873c
000001e0: d4e5 2e3d 84f7 07bd 98c6 efbc dba4 52bd
000001f0: 525d 9dbc 1346 1a3d 4bea 4b3d 6087 1d3d
00000200: 0f27 333d b4bc caba 8ab8 bc3c ee34 323b
00000210: 5f60 d4bc 96de 06bd e7e2 583d f360 50bd
00000220: f612 dcbc 53d8 33bd ceba f9bb f779 923a
00000230: 4ddb 37bd b36a 5bbb b216 e5b9 a78b dcbb
00000240: 308d db3c 51ec 113d 7052 c4bc 81be 1c3d
00000250: 67d9 213d 25b0 74bc d4c0 f1bc 54a5 18bd
00000260: 1581 efbc 8b38 be3c 2c09 c9bb 4f5a 19bb
00000270: b371 8e3c 00c5 1a3b ba89 23bd 3c36 cb3c
00000280: 2831 233d 85fb 10bd 9c60 51bd 88e3 323d
00000290: 4b0f 1ebd 3a1f b33c ed4e f03c 5809 f1bc
000002a0: 750b e338 af58 08bc 75af 40bd 2546 353d
000002b0: d54d 533d 7fd9 58bd ce43 c43c de23 523d
000002c0: 9290 cb3b a1f3 8f3b 7e7d 52bc 2d1d 583d
000002d0: 0a26 fcbc c869 c73c 7728 70bb 1b95 443d
000002e0: 9db6 1ebc cc6f e93c 1fe8 e03c 94c1 9c3c
000002f0: 1a7e 83bb bbeb 4e3d 8de4 0c3d 8481 0cbd
00000300: 3539 24ba 9629 9639 70e4 1e3d 0c9d aabc
00000310: 6763 04bd 3e7b 5d3d c2d7 ef3c d436 043c
00000320: 59d3 0bbd 489c bc3c 969b a7bc 8834 10bc
00000330: 8516 94bc 5183 ba3b 3334 fdbc 647a 333c
00000340: c7ae 5e3d 68f1 71bc f048 4e3c f7ee a7bc
00000350: 1f73 32bd 4db6 1bbc 6f5f 1dbd 7e56 3b3d
00000360: 1280 bf3c bd20 4abb 4c57 0cbc 4c21 11bd
00000370: cde9 2fbd 1487 2c3d 8979 233d b299 b33c
00000380: 8e3f 3c3d b257 4abd 4e29 193d 9ea9 1ebb
00000390: f752 3cbb aef2 c53c eaef 493d e268 a7bc
000003a0: fd9c b2bc b9a7 493d beb8 213d 7055 3e3d
000003b0: e30b 09bd af7a a5bc 6226 2cbc daab 5cbc
000003c0: 644c 0b3d cf92 3a3d d853 41bc efb8 5bbc
000003d0: 483c 323c 74bf 18bd e39f 69bc 7d25 56bd
000003e0: fc51 0c3c 7787 5f3d b0f4 063d ba86 49bd
000003f0: e952 5abd 1fe2 193d 4132 283c 836b 023d

cnn.3.bias f4 [16]
0.025610266 0.008100421 0.05524267 0.018990666 -0.030657707 0.04748987 0.007636906 -0.018635295
0.029536916 0.004531095 0.028615003 0.043112226 -0.053526383 -0.008180415 -0.055210102 0.04823293
00000000: 9fcc d13c a1b7 043c 2346 623d 5092 9b3c
00000010: df25 fbbc bd84 423d 033f fa3b 0ca9 98bc
00000020: 67f7 f13c 9479 943b 036a ea3c 7296 303d
00000030: 7b3e 5bbd 2607 06bc fd23 62bd e58f 453d

cnn.6.weight f4 [16, 16, 3, 3]
-0.0020458004 0.018081427 0.030836245 0.0255032 -0.052055668 0.07914631 0.05163592 0.014904967
-0.018512994 0.01654325 0.018766334 0.023004591 -0.045201503 0.075802684 0.023466786 0.045296215
0.04589179 -0.04538104 -0.034873676 -0.009908736 0.031226238 -0.04631328 0.05152297 -0.06872045
-0.052913368 0.03455227 0.013774197 -0.0030341845 0.049764477 -0.07741539 -0.011018942 0.02151238
0.08107893 -0.042040974 -0.02892844 -0.020263493 -0.030518543 -0.06471957 0.006301602 0.03994161
-0.04553173 0.000117351614 0.012490402 -0.0686302 -0.014238954 -0.031137448 -0.07134684 0.064940095
-0.06694641 0.048000038 0.076836675 0.057072513 0.002956897 -0.0318129 0.032813787 0.039215773
0.021284968 0.0028358302 -0.071902506 -0.038727283 0.015819004 -0.07541661 -0.029061269 -0.022703132
-0.025753668 0.0086032655 -0.0020034413 -0.07551883 0.07651099 -0.05143879 -0.06817731 -0.05270953
-0.053005826 0.0065970523 0.06550625 -0.07918738 0.034795105 0.06270936 0.05796835 0.0770584
0.015882542 -0.0057507954 -0.008726458 -0.0049225194 0.045061957 0.041922145 -0.08087066 -0.031037401
0.081315726 0.06979543 0.041925363 -0.046708923 -0.016835323 0.027182411 0.047955662 -0.08320764
-0.02575327 0.0057575307 0.033017665 -0.065987214 0.07980998 -0.0019145509 -0.075395375 0.015726488
-0.027556013 -0.07640868 0.08207535 0.001415511 -0.015827697 -0.06844273 0.043910764 -0.06865963
0.053378504 0.0045516593 -0.0063030124 0.07500115 -0.04130605 -0.03512352 -0.07655789 -0.0030934415
-0.007627686 -0.026253056 -0.06623008 -0.020064017 0.07803606 -0.00069157284 -0.048910916 0.023933789
0.0011462172 0.04356551 -0.04631021 0.017915946 -0.07824451 -0.057475608 0.07396015 0.045268357
0.050685547 0.06017205 0.028629174 -0.018523913 -0.07871582 -0.018044055 -0.041279636 0.06345128
-0.0070324643 0.0077575445 -0.060462207 -0.061339896 0.0021264455 -0.06365629 -0.025279146 0.052805405
-0.072402924 0.065638945 0.051580053 -0.01499184 0.06864374 -0.06415661 0.0002528131 -0.01699557
0.0037676892 0.07946165 0.06665082 -0.07638993 -0.03763209 0.027728628 0.04125192 0.010859579
-0.07559057 0.06867802 -0.06267508 0.072388455 -0.012949526 0.05967044 0.055320323 -0.027596524
0.000110536814 -0.013721894 -0.060691386 0.057219952 0.04556638 -0.05784946 -0.06587564 -0.025007945
0.07402052 -0.05976812 0.008919845 0.02876876 -0.07601564 -0.071951136 0.00060861313 0.05015838
0.013722142 -0.04346187 -0.054311633 0.062800765 -0.07027118 -0.035242967 -0.012192896 -0.05591915
-0.04983592 -0.05417317 -0.012507091 0.053354245 0.07835677 0.012154728 -0.049178224 0.047098022
0.04101958 0.04255284 0.08109538 0.012662302 -0.08258034 -0.014233639 0.015380661 0.0028711956
0.014867663 -0.05383127 -0.016389122 0.03466686 -0.040035874 -0.03210932 0.023667663 -0.045857698
0.07442126 0.01194643 -0.03343671 0.06337401 0.0626218 -0.021732053 -0.07496404 -0.049719833
-0.0022508204 0.03937804 0.025372624 -0.07282706 -0.019432824 0.07562011 0.06855632 0.047960877
-0.07810332 -0.0050753257 -0.00021855037 -0.0016952157 -0.03538701 -0.057756506 -0.0732651 -0.06239914
-0.08325534 -0.07412247 -0.04612609 -0.0447583 -0.020574331 -0.053814143 0.05717495 -0.009121041
00000000: d612 06bb 801f 943c 4b9c fc3c 16ec d03c
00000010: 5338 55bd 7617 a23d 3080 533d f633 743c
00000020: 90a8 97bc b685 873c dbbb 993c 2074 bc3c
00000030: 3625 39bd 703e 9b3d 6b3d c03c 8688 393d
00000040: 08f9 3b3d 78e1 39bd b3d7 0ebd 4058 22bc
00000050: 2bce ff3c feb2 3dbd c009 533d 4fbd 8cbd
00000060: b0bb 58bd ae86 0d3d 2bad 613c 2bd9 46bb
00000070: d6d5 4b3d f68b 9ebd cb88 34bc bb3a b03c
00000080: b60c a63d 2833 2cbd 56fb ecbc a0ff a5bc
00000090: 0602 fabc b28b 84bd ab7d ce3b d099 233d
000000a0: 7b7f 3abd ab1a f638 8ba4 4c3c fe8d 8cbd
000000b0: 804a 69bc f613 ffbc 4b1e 92bd 50ff 843d
000000c0: 331b 89bd b09b 443d 8c5c 9d3d dec4 693d
000000d0: 80c8 413b 3e4e 02bd c067 063d b8a0 203d
000000e0: d05d ae3c 56d9 393b 9f41 93bd 80a0 1ebd
000000f0: db96 813c 0674 9abd e611 eebc ebfb b9bc
00000100: 5bf9 d2bc b6f4 0c3c 2b4c 03bb 9ea9 9abd
00000110: cbb1 9c3d 7bb1 52bd 8ca0 8bbd f3e5 57bd
00000120: a31c 59bd 162c d83b 2428 863d fe2c a2bd
00000130: 5085 0e3d c46d 803d 3870 6d3d cbd0 9d3d
00000140: 1b1c 823c 2b71 bcbb 6bf9 0ebc 164d a1bb
00000150: e392 383d 8eb6 2b3d 849f a5bd 2642 febc
00000160: dc88 a63d e8f0 8e3d eeb9 2b3d db51 3fbd
00000170: 3bea 89bc a6ad de3c 286d 443d c468 aabd
00000180: 86f8 d2bc aba9 bc3b 883d 073d 4e24 87bd
00000190: 6a73 a33d abf1 faba e468 9abd d6d4 803c
000001a0: 26bd e1bc 277c 9cbd 1f17 a83d ab88 b93a
000001b0: 16a9 81bc b42b 8cbd c6db 333d 6c9d 8cbd
000001c0: 6ba3 5a3d 1626 953b 8089 cebb 349a 993d
000001d0: 8830 29bd aedd 0fbd 62ca 9cbd 56bb 4abb
000001e0: abf1 f9bb a610 d7bc a3a3 87bd 4b5d a4bc
000001f0: 5fd1 9f3d ab4a 35ba d056 48bd cb10 c43c
00000200: ab3c 963a c071 323d c6af 3dbd 76c4 923c
00000210: a83e a0bd 8b6b 6bbd 6b78 973d 506b 393d
00000220: a69b 4f3d f876 763d bb87 ea3c 76bf 97bc
00000230: c335 a1bd 20d1 93bc d614 29bd bff2 813d
00000240: 9670 e6bb 0033 fe3b 38a7 77bd 8b3f 7bbd
00000250: d65b 0b3b 3b5e 82bd 3616 cfbc 7b4a 583d
00000260: fc47 94bd b66d 863d 9b45 533d 56a0 75bc
00000270: 1795 8c3d 8a64 83bd 008c 8439 4b3a 8bbc
00000280: 56eb 763b cabc a23d 3a80 883d 5372 9cbd
00000290: 1b24 1abd 2627 e33c c6f7 283d 60ec 313c
000002a0: 3bcf 9abd 10a7 8c3d cb5b 80bd 6640 943d
000002b0: 402a 54bc fe68 743d 9097 623d 1b12 e2bc
000002c0: 00d0 e738 cbd1 60bc 8897 78bd 785f 6a3d
000002d0: d0a3 3a3d 8ef3 6cbd cfe9 86bd 76dd ccbc
000002e0: 1298 973d 6bcf 74bd 8b24 123c 76ac eb3c
000002f0: 16ae 9bbd 1e5b 93bd 568b 1f3a e072 4d3d
00000300: d6d2 603c 1305 32bd e075 5ebd b09d 803d
00000310: 56ea 8fbd ee5a 10bd b6c4 47bc 7b0b 65bd
00000320: c020 4cbd b0e4 5dbd 8bea 4cbc fb89 5a3d
00000330: 8479 a03d a024 473c 1b6f 49bd dbe9 403d
00000340: 2604 283d e34b 2e3d 5615 a63d 8b75 4f3c
00000350: e21f a9bd 3634 69bc 2bff 7b3c ab2a 3c3b
00000360: 8097 733c 2e7e 5cbd 7b42 86bc d6fe 0d3d
00000370: a8fc 23bd 1085 03bd b0e2 c13c 48d5 3bbd
00000380: 2c6a 983d f6ba 433c eef4 08bd 3cca 813d
00000390: dc3f 803d 6b07 b2bc bf86 99bd 06a7 4bbd
000003a0: 8082 13bb de4a 213d 40da cf3c 5b26 95bd
000003b0: 9631 9fbc b7de 9a3d 4267 8c3d a072 443d
000003c0: a2f4 9fbd eb4e a6bb ab2a 65b9 0032 deba
000003d0: f8f1 10bd 1692 6cbd 030c 96bd 3e96 7fbd
000003e0: c781 aabd 86cd 97bd b6ee 3cbd 7b54 37bd
000003f0: 808b a8bc 386c 5cbd 4830 6a3d 6b70 15bc

cnn.6.bias f4 [16]
0.07908295 0.016851177 -0.017532807 0.081612036 0.06779264 -0.0041487217 -0.028237274 0.034165703
-0.015977394 -0.04565094 -0.06957331 -0.06366601 -0.07372217 -0.061644536 -0.005081515 0.004560332
00000000: 3ef6 a13d 7b0b 8a3c f6a0 8fbc 3624 a73d
00000010: ded6 8a3d 00f2 87bb db51 e7bc 56f1 0b3d
00000020: 06e3 82bc 7bfc 3abd 747c 8ebd 5363 82bd
00000030: a6fb 96bd fb7e 7cbd d682 a6bb d66e 953b

fully_connected.0.weight f4 [144]
1.0 1.0 1.0 1.0 1.0 1.0 1.0 1.0
1.0 1.0 1.0 1.0 1.0 1.0 1.0 1.0
1.0 1.0 1.0 1.0 1.0 1.0 1.0 1.0
1.0 1.0 1.0 1.0 1.0 1.0 1.0 1.0
1.0 1.0 1.0 1.0 1.0 1.0 1.0 1.0
1.0 1.0 1.0 1.0 1.0 1.0 1.0 1.0
1.0 1.0 1.0 1.0 1.0 1.0 1.0 1.0
1.0 1.0 1.0 1.0 1.0 1.0 1.0 1.0
1.0 1.0 1.0 1.0 1.0 1.0 1.0 1.0
1.0 1.0 1.0 1.0 1.0 1.0 1.0 1.0
1.0 1.0 1.0 1.0 1.0 1.0 1.0 1.0
1.0 1.0 1.0 1.0 1.0 1.0 1.0 1.0
1.0 1.0 1.0 1.0 1.0 1.0 1.0 1.0
1.0 1.0 1.0 1.0 1.0 1.0 1.0 1.0
1.0 1.0 1.0 1.0 1.0 1.0 1.0 1.0
1.0 1.0 1.0 1.0 1.0 1.0 1.0 1.0
1.0 1.0 1.0 1.0 1.0 1.0 1.0 1.0
1.0 1.0 1.0 1.0 1.0 1.0 1.0 1.0
00000000: 0000 803f 0000 803f 0000 803f 0000 803f
00000010: 0000 803f 0000 803f 0000 803f 0000 803f
00000020: 0000 803f 0000 803f 0000 803f 0000 803f
00000030: 0000 803f 0000 803f 0000 803f 0000 803f
00000040: 0000 803f 0000 803f 0000 803f 0000 803f
00000050: 0000 803f 0000 803f 0000 803f 0000 803f
00000060: 0000 803f 0000 803f 0000 803f 0000 803f
00000070: 0000 803f 0000 803f 0000 803f 0000 803f
00000080: 0000 803f 0000 803f 0000 803f 0000 803f
00000090: 0000 803f 0000 803f 0000 803f 0000 803f
000000a0: 0000 803f 0000 803f 0000 803f 0000 803f
000000b0: 0000 803f 0000 803f 0000 803f 0000 803f
000000c0: 0000 803f 0000 803f 0000 803f 0000 803f
000000d0: 0000 803f 0000 803f 0000 803f 0000 803f
000000e0: 0000 803f 0000 803f 0000 803f 0000 803f
000000f0: 0000 803f 0000 803f 0000 803f 0000 803f
00000100: 0000 803f 0000 803f 0000 803f 0000 803f
00000110: 0000 803f 0000 803f 0000 803f 0000 803f
00000120: 0000 803f 0000 803f 0000 803f 0000 803f
00000130: 0000 803f 0000 803f 0000 803f 0000 803f
00000140: 0000 803f 0000 803f 0000 803f 0000 803f
00000150: 0000 803f 0000 803f 0000 803f 0000 803f
00000160: 0000 803f 0000 803f 0000 803f 0000 803f
00000170: 0000 803f 0000 803f 0000 803f 0000 803f
00000180: 0000 803f 0000 803f 0000 803f 0000 803f
00000190: 0000 803f 0000 803f 0000 803f 0000 803f
000001a0: 0000 803f 0000 803f 0000 803f 0000 803f
000001b0: 0000 803f 0000 803f 0000 803f 0000 803f
000001c0: 0000 803f 0000 803f 0000 803f 0000 803f
000001d0: 0000 803f 0000 803f 0000 803f 0000 803f
000001e0: 0000 803f 0000 803f 0000 803f 0000 803f
000001f0: 0000 803f 0000 803f 0000 803f 0000 803f
00000200: 0000 803f 0000 803f 0000 803f 0000 803f
00000210: 0000 803f 0000 803f 0000 803f 0000 803f
00000220: 0000 803f 0000 803f 0000 803f 0000 803f
00000230: 0000 803f 0000 803f 0000 803f 0000 803f

fully_connected.0.bias f4 [144]
0.0 0.0 0.0 0.0 0.0 0.0 0.0 0.0
0.0 0.0 0.0 0.0 0.0 0.0 0.0 0.0
0.0 0.0 0.0 0.0 0.0 0.0 0.0 0.0
0.0 0.0 0.0 0.0 0.0 0.0 0.0 0.0
0.0 0.0 0.0 0.0 0.0 0.0 0.0 0.0
0.0 0.0 0.0 0.0 0.0 0.0 0.0 0.0
0.0 0.0 0.0 0.0 0.0 0.0 0.0 0.0
0.0 0.0 0.0 0.0 0.0 0.0 0.0 0.0
0.0 0.0 0.0 0.0 0.0 0.0 0.0 0.0
0.0 0.0 0.0 0.0 0.0 0.0 0.0 0.0
0.0 0.0 0.0 0.0 0.0 0.0 0.0 0.0
0.0 0.0 0.0 0.0 0.0 0.0 0.0 0.0
0.0 0.0 0.0 0.0 0.0 0.0 0.0 0.0
0.0 0.0 0.0 0.0 0.0 0.0 0.0 0.0
0.0 0.0 0.0 0.0 0.0 0.0 0.0 0.0
0.0 0.0 0.0 0.0 0.0 0.0 0.0 0.0
0.0 0.0 0.0 0.0 0.0 0.0 0.0 0.0
0.0 0.0 0.0 0.0 0.0 0.0 0.0 0.0
00000000: 0000 0000 0000 0000 0000 0000 0000 0000
00000010: 0000 0000 0000 0000 0000 0000 0000 0000
00000020: 0000 0000 0000 0000 0000 0000 0000 0000
00000030: 0000 0000 0000 0000 0000 0000 0000 0000
00000040: 0000 0000 0000 0000 0000 0000 0000 0000
00000050: 0000 0000 0000 0000 0000 0000 0000 0000
00000060: 0000 0000 0000 0000 0000 0000 0000 0000
00000070: 0000 0000 0000 0000 0000 0000 0000 0000
00000080: 0000 0000 0000 0000 0000 0000 0000 0000
00000090: 0000 0000 0000 0000 0000 0000 0000 0000
000000a0: 0000 0000 0000 0000 0000 0000 0000 0000
000000b0: 0000 0000 0000 0000 0000 0000 0000 0000
000000c0: 0000 0000 0000 0000 0000 0000 0000 0000
000000d0: 0000 0000 0000 0000 0000 0000 0000 0000
000000e0: 0000 0000 0000 0000 0000 0000 0000 0000
000000f0: 0000 0000 0000 0000 0000 0000 0000 0000
00000100: 0000 0000 0000 0000 0000 0000 0000 0000
00000110: 0000 0000 0000 0000 0000 0000 0000 0000
00000120: 0000 0000 0000 0000 0000 0000 0000 0000
00000130: 0000 0000 0000 0000 0000 0000 0000 0000
00000140: 0000 0000 0000 0000 0000 0000 0000 0000
00000150: 0000 0000 0000 0000 0000 0000 0000 0000
00000160: 0000 0000 0000 0000 0000 0000 0000 0000
00000170: 0000 0000 0000 0000 0000 0000 0000 0000
00000180: 0000 0000 0000 0000 0000 0000 0000 0000
00000190: 0000 0000 0000 0000 0000 0000 0000 0000
000001a0: 0000 0000 0000 0000 0000 0000 0000 0000
000001b0: 0000 0000 0000 0000 0000 0000 0000 0000
000001c0: 0000 0000 0000 0000 0000 0000 0000 0000
000001d0: 0000 0000 0000 0000 0000 0000 0000 0000
000001e0: 0000 0000 0000 0000 0000 0000 0000 0000
000001f0: 0000 0000 0000 0000 0000 0000 0000 0000
00000200: 0000 0000 0000 0000 0000 0000 0000 0000
00000210: 0000 0000 0000 0000 0000 0000 0000 0000
00000220: 0000 0000 0000 0000 0000 0000 0000 0000
00000230: 0000 0000 0000 0000 0000 0000 0000 0000

fully_connected.0.running_mean f4 [144]
0.0 0.0 0.0 0.0 0.0 0.0 0.0 0.0
0.0 0.0 0.0 0.0 0.0 0.0 0.0 0.0
0.0 0.0 0.0 0.0 0.0 0.0 0.0 0.0
0.0 0.0 0.0 0.0 0.0 0.0 0.0 0.0
0.0 0.0 0.0 0.0 0.0 0.0 0.0 0.0
0.0 0.0 0.0 0.0 0.0 0.0 0.0 0.0
0.0 0.0 0.0 0.0 0.0 0.0 0.0 0.0
0.0 0.0 0.0 0.0 0.0 0.0 0.0 0.0
0.0 0.0 0.0 0.0 0.0 0.0 0.0 0.0
0.0 0.0 0.0 0.0 0.0 0.0 0.0 0.0
0.0 0.0 0.0 0.0 0.0 0.0 0.0 0.0
0.0 0.0 0.0 0.0 0.0 0.0 0.0 0.0
0.0 0.0 0.0 0.0 0.0 0.0 0.0 0.0
0.0 0.0 0.0 0.0 0.0 0.0 0.0 0.0
0.0 0.0 0.0 0.0 0.0 0.0 0.0 0.0
0.0 0.0 0.0 0.0 0.0 0.0 0.0 0.0
0.0 0.0 0.0 0.0 0.0 0.0 0.0 0.0
0.0 0.0 0.0 0.0 0.0 0.0 0.0 0.0
00000000: 0000 0000 0000 0000 0000 0000 0000 0000
00000010: 0000 0000 0000 0000 0000 0000 0000 0000
00000020: 0000 0000 0000 0000 0000 0000 0000 0000
00000030: 0000 0000 0000 0000 0000 0000 0000 0000
00000040: 0000 0000 0000 0000 0000 0000 0000 0000
00000050: 0000 0000 0000 0000 0000 0000 0000 0000
00000060: 0000 0000 0000 0000 0000 0000 0000 0000
00000070: 0000 0000 0000 0000 0000 0000 0000 0000
00000080: 0000 0000 0000 0000 0000 0000 0000 0000
00000090: 0000 0000 0000 0000 0000 0000 0000 0000
000000a0: 0000 0000 0000 0000 0000 0000 0000 0000
000000b0: 0000 0000 0000 0000 0000 0000 0000 0000
000000c0: 0000 0000 0000 0000 0000 0000 0000 0000
000000d0: 0000 0000 0000 0000 0000 0000 0000 0000
000000e0: 0000 0000 0000 0000 0000 0000 0000 0000
000000f0: 0000 0000 0000 0000 0000 0000 0000 0000
00000100: 0000 0000 0000 0000 0000 0000 0000 0000
00000110: 0000 0000 0000 0000 0000 0000 0000 0000
00000120: 0000 0000 0000 0000 0000 0000 0000 0000
00000130: 0000 0000 0000 0000 0000 0000 0000 0000
00000140: 0000 0000 0000 0000 0000 0000 0000 0000
00000150: 0000 0000 0000 0000 0000 0000 0000 0000
00000160: 0000 0000 0000 0000 0000 0000 0000 0000
00000170: 0000 0000 0000 0000 0000 0000 0000 0000
00000180: 0000 0000 0000 0000 0000 0000 0000 0000
00000190: 0000 0000 0000 0000 0000 0000 0000 0000
000001a0: 0000 0000 0000 0000 0000 0000 0000 0000
000001b0: 0000 0000 0000 0000 0000 0000 0000 0000
000001c0: 0000 0000 0000 0000 0000 0000 0000 0000
000001d0: 0000 0000 0000 0000 0000 0000 0000 0000
000001e0: 0000 0000 0000 0000 0000 0000 0000 0000
000001f0: 0000 0000 0000 0000 0000 0000 0000 0000
00000200: 0000 0000 0000 0000 0000 0000 0000 0000
00000210: 0000 0000 0000 0000 0000 0000 0000 0000
00000220: 0000 0000 0000 0000 0000 0000 0000 0000
00000230: 0000 0000 0000 0000 0000 0000 0000 0000

fully_connected.0.running_var f4 [144]
1.0 1.0 1.0 1.0 1.0 1.0 1.0 1.0
1.0 1.0 1.0 1.0 1.0 1.0 1.0 1.0
1.0 1.0 1.0 1.0 1.0 1.0 1.0 1.0
1.0 1.0 1.0 1.0 1.0 1.0 1.0 1.0
1.0 1.0 1.0 1.0 1.0 1.0 1.0 1.0
1.0 1.0 1.0 1.0 1.0 1.0 1.0 1.0
1.0 1.0 1.0 1.0 1.0 1.0 1.0 1.0
1.0 1.0 1.0 1.0 1.0 1.0 1.0 1.0
1.0 1.0 1.0 1.0 1.0 1.0 1.0 1.0
1.0 1.0 1.0 1.0 1.0 1.0 1.0 1.0
1.0 1.0 1.0 1.0 1.0 1.0 1.0 1.0
1.0 1.0 1.0 1.0 1.0 1.0 1.0 1.0
1.0 1.0 1.0 1.0 1.0 1.0 1.0 1.0
1.0 1.0 1.0 1.0 1.0 1.0 1.0 1.0
1.0 1.0 1.0 1.0 1.0 1.0 1.0 1.0
1.0 1.0 1.0 1.0 1.0 1.0 1.0 1.0
1.0 1.0 1.0 1.0 1.0 1.0 1.0 1.0
1.0 1.0 1.0 1.0 1.0 1.0 1.0 1.0
00000000: 0000 803f 0000 803f 0000 803f 0000 803f
00000010: 0000 803f 0000 803f 0000 803f 0000 803f
00000020: 0000 803f 0000 803f 0000 803f 0000 803f
00000030: 0000 803f 0000 803f 0000 803f 0000 803f
00000040: 0000 803f 0000 803f 0000 803f 0000 803f
00000050: 0000 803f 0000 803f 0000 803f 0000 803f
00000060: 0000 803f 0000 803f 0000 803f 0000 803f
00000070: 0000 803f 0000 803f 0000 803f 0000 803f
00000080: 0000 803f 0000 803f 0000 803f 0000 803f
00000090: 0000 803f 0000 803f 0000 803f 0000 803f
000000a0: 0000 803f 0000 803f 0000 803f 0000 803f
000000b0: 0000 803f 0000 803f 0000 803f 0000 803f
000000c0: 0000 803f 0000 803f 0000 803f 0000 803f
000000d0: 0000 803f 0000 803f 0000 803f 0000 803f
000000e0: 0000 803f 0000 803f 0000 803f 0000 803f
000000f0: 0000 803f 0000 803f 0000 803f 0000 803f
00000100: 0000 803f 0000 803f 0000 803f 0000 803f
00000110: 0000 803f 0000 803f 0000 803f 0000 803f
00000120: 0000 803f 0000 803f 0000 803f 0000 803f
00000130: 0000 803f 0000 803f 0000 803f 0000 803f
00000140: 0000 803f 0000 803f 0000 803f 0000 803f
00000150: 0000 803f 0000 803f 0000 803f 0000 803f
00000160: 0000 803f 0000 803f 0000 803f 0000 803f
00000170: 0000 803f 0000 803f 0000 803f 0000 803f
00000180: 0000 803f 0000 803f 0000 803f 0000 803f
00000190: 0000 803f 0000 803f 0000 803f 0000 803f
000001a0: 0000 803f 0000 803f 0000 803f 0000 803f
000001b0: 0000 803f 0000 803f 0000 803f 0000 803f
000001c0: 0000 803f 0000 803f 0000 803f 0000 803f
000001d0: 0000 803f 0000 803f 0000 803f 0000 803f
000001e0: 0000 803f 0000 803f 0000 803f 0000 803f
000001f0: 0000 803f 0000 803f 0000 803f 0000 803f
00000200: 0000 803f 0000 803f 0000 803f 0000 803f
00000210: 0000 803f 0000 803f 0000 803f 0000 803f
00000220: 0000 803f 0000 803f 0000 803f 0000 803f
00000230: 0000 803f 0000 803f 0000 803f 0000 803f

fully_connected.1.weight f4 [132, 144]
-0.05612467 -0.04640513 -0.08232096 -0.0488967 -0.08058204 0.05648935 -0.05970695 0.019856444
-0.0022083125 -0.03457607 -0.0017693043 -0.040519588 -0.0037488937 -0.038264822 0.04862255 0.05807534
0.05389143 0.018436423 0.06682431 -0.011441946 -0.008059671 0.048176408 -0.02683591 -0.012005687
-0.06869218 -0.055385344 -0.06325595 0.056695543 0.04511429 0.077971995 0.0063480637 -0.0085448325
-0.014831236 -0.003410111 -0.02368952 0.011050354 -0.04871905 -0.053560615 0.079481274 0.052204292
-0.026690453 0.062969886 0.03921642 -0.04922071 -0.005943249 -0.013262908 0.076249346 0.07093047
-0.072220884 0.02478844 0.075573705 0.062615216 0.015287966 0.07838526 -0.0035776894 0.05471779
0.05678612 -0.059736043 -0.043682158 -0.07701936 -0.034968775 0.0066701374 -0.054064743 -0.042083852
-0.017473519 -0.02103297 0.027117005 -0.047754716 -0.022068482 0.031006208 0.053232305 0.022197824
-0.012054841 0.04671845 -0.0012501379 -0.08036879 0.0033932328 0.014124374 0.06146714 -0.040445082
0.0658377 0.014295429 0.031001171 0.057717353 0.066188276 -0.07070632 -0.003672878 -0.00456966
-0.050788544 0.07474887 0.018792978 -0.06258657 -0.027830344 -0.021188837 -0.06211313 -0.019787174
0.070629895 0.007194847 0.081822366 -0.038413256 -0.0032210152 0.028691452 0.07866829 0.024918973
-0.013379088 -0.044274718 -0.03129354 0.04511755 -0.0058032675 -0.04821391 -0.070924744 0.07433742
0.010354768 0.014886618 -0.010666579 -0.0025863848 0.06577473 0.0064561567 -0.0508027 0.046912402
-0.006996393 -0.0042272112 0.015538355 -0.03407421 -0.012670597 0.059291415 0.057962388 0.028756967
-0.062329512 0.06910294 0.06741556 -0.0025297205 0.060168546 -0.021686247 0.07669481 -0.035853636
0.024282029 -0.041566353 -0.030293524 0.022275329 0.043561213 0.0743366 0.015571078 -0.029112559
-0.018793186 -0.04039558 -0.07356372 -0.0828064 -0.08061394 0.06404665 0.035947613 -0.03125286
0.008897981 0.08158981 -0.03964142 -0.079005316 0.01216214 3.50674e-06 0.009029806 -0.06302966
-0.05676645 0.0364801 -0.020788591 0.008427839 -0.0599327 -0.0628564 0.083183035 -0.07756503
-0.0076491437 -0.0059665046 0.001408577 0.06357502 0.055980712 0.0520915 0.043792814 -0.08279594
-0.053087812 0.031374328 -0.053606074 0.081543684 0.02943189 -0.013269097 -0.019782078 -0.08007382
0.018173635 -0.051757377 -0.023402493 -0.013362637 0.014534175 0.01011911 -0.013881425 0.05271613
0.045114182 0.081402265 0.00428768 -0.015703103 -0.014934341 0.006629159 0.0701433 0.025932234
-0.034521203 0.022555014 -0.045895904 0.06978493 -0.06724902 -0.07995869 0.074435286 -0.052772515
0.04603225 0.045097314 0.07825361 0.04024173 -0.015113115 0.05941385 0.072968945 0.03177784
-0.0042212307 -0.010530303 0.05993117 0.06747427 -0.046019465 0.033611517 0.018378308 -0.027246743
-0.035608333 -0.052627873 -0.08288127 -0.06269189 -0.007145256 0.053060375 0.057818823 0.0058639944
0.051862895 -0.079752415 0.06223666 0.025437009 0.043188743 0.024318367 0.040026456 -0.03619526
0.07732176 -0.027215283 0.023328673 -0.03602798 -0.008758068 -0.059710424 0.013608456 0.0034219723
0.06164373 0.030181816 -0.040766746 0.056461256 0.07107266 0.022093227 0.07739757 0.015729051
00000000: fbe2 65bd 4e13 3ebd e497 a8bd e847 48bd
00000010: 3208 a5bd 6061 673d 468f 74bd fba9 a23c
00000020: 56b9 10bb a39f 0dbd 00e8 e7ba def7 25bd
00000030: 00b0 75bb 93bb 1cbd 7028 473d 68e0 6d3d
00000040: 43bd 5c3d fb07 973c 2fdb 883d 0077 3bbc
00000050: b60c 04bc a054 453d fbd6 dbbc 80b3 44bc
00000060: 7cae 8cbd bedb 62bd 568c 81bd 9639 683d
00000070: c3c9 383d c8af 9f3d 6b03 d03b a0ff 0bbc
00000080: b6fe 72bc 2b7c 5fbb 8610 c2bc 8b0c 353c
00000090: a08d 47bd 6062 5bbd 14c7 a23d 2bd4 553d
000000a0: f0a5 dabc 5bf6 803d 66a1 203d a89b 49bd
000000b0: 96bf c2bb ab4c 59bc 9e28 9c3d ff43 913d
000000c0: 8be8 93bd 2011 cb3c 63c6 9a3d 683c 803d
000000d0: 607a 7a3c 7488 a03d ab77 6abb c31f 603d
000000e0: 9098 683d c8ad 74bd 10ec 32bd 54bc 9dbd
000000f0: 6b3b 0fbd 2b91 da3b fe72 5dbd 1e60 2cbd
00000100: a024 8fbc 564d acbc 7b24 de3c 739a 43bd
00000110: f6c8 b4bc bb00 fe3c 1e0a 5a3d 36d8 b53c
00000120: ab81 45bc d85b 3f3d abdb a3ba 6498 a4bd
00000130: 0061 5e3b eb69 673c f8c4 7b3d bea9 25bd
00000140: ebd5 863d 6037 6a3c 2bf6 fd3c 0869 6c3d
00000150: b88d 873d 7ace 90bd abb4 70bb 16bd 95bb
00000160: a607 50bd f015 993d bbf3 993c 632d 80bd
00000170: 76fc e3bc 3694 adbc 566a 7ebd b618 a2bc
00000180: 68a6 903d c0c2 eb3b 7c92 a73d 3857 1dbd
00000190: ab17 53bb 560a eb3c d71c a13d e022 cc3c
000001a0: f633 5bbc 6859 35bd a82d 00bd 2ecd 383d
000001b0: 5629 bebb f37b 45bd fe40 91bd 383e 983d
000001c0: 0ba7 293c 00e7 733c e0c2 2ebc 5680 29bb
000001d0: e7b4 863d 2b8e d33b 7e16 50bd 3827 403d
000001e0: 0042 e5bb 6b84 8abb 9694 7e3c 6691 0bbd
000001f0: 5698 4fbc 8edb 723d f869 6d3d bb93 eb3c
00000200: 3b4d 7fbd d885 8d3d 2b11 8a3d abc9 25bb
00000210: 4b73 763d 5ba7 b1bc 2b12 9d3d 43db 12bd
00000220: 1beb c63c 7b41 2abd 202a f8bc c07a b63c
00000230: 3e6d 323d ca3d 983d d61d 7f3c 767d eebc
00000240: 2bf4 99bc d675 25bd 93a8 96bd 6796 a9bd
00000250: ec18 a5bd e42a 833d ce3d 133d 0003 00bd
00000260: d6c8 113c 8f18 a73d 0b5f 22bd 8acd a1bd
00000270: b643 473c 5655 6b36 c0f1 133c b215 81bd
00000280: f083 68bd 286c 153d d64c aabc eb14 0a3c
00000290: fe7b 75bd dbba 80bd de5b aa3d 6ada 9ebd
000002a0: aba5 fabb ab82 c3bb 00a0 b83a 9f33 823d
000002b0: 084c 653d e65d 553d 1860 333d eb90 a9bd
000002c0: 9b72 59bd 5e82 003d 0b92 5bbd 6000 a73d
000002d0: 261b f13c a066 59bc 060e a2bc befd a3bd
000002e0: e0e0 943c 8bff 53bd 96b6 bfbc f6ee 5abc
000002f0: c020 6e3c a0ca 253c eb6e 63bc deec 573d
00000300: a6c9 383d 3bb6 a63d ab7f 8c3b cba3 80bc
00000310: 2baf 74bc 6b39 d93b 4aa7 8f3d d66f d43c
00000320: 1b66 0dbd 4bc5 b83c 58fd 3bbd 67eb 8e3d
00000330: dbb9 89bd 62c1 a3bd 8771 983d fe27 58bd
00000340: 508c 3c3d f6b7 383d 6e43 a03d 83d4 243d
00000350: 009d 77bc f05b 733d be70 953d 7b29 023d
00000360: 4052 8abb 4b87 2cbc 637a 753d f32f 8a3d
00000370: e87e 3cbd 3bac 093d 1b8e 963c 9034 dfbc
00000380: 0bda 11bd 5390 57bd a8bd a9bd 9b64 80bd
00000390: c022 eabb d655 593d 6ed3 6c3d c026 c03b
000003a0: 306e 543d 3c55 a3bd deeb 7e3d 4661 d03c
000003b0: aee6 303d 5037 c73c c8f2 233d 7b41 14bd
000003c0: df5a 9e3d 96f2 debc c61b bf3c 1392 13bd
000003d0: 007e 0fbc eb92 74bd 00f6 5e3c 2b43 603b
000003e0: 237e 7c3d db3f f73c 08fb 26bd eb43 673d
000003f0: 8b8e 913d dbfc b43c 9e82 9e3d 36da 803c

fully_connected.1.bias f4 [132]
-0.054995745 0.053806275 -0.06699135 0.07825026 0.041869007 0.03925725 0.033140145 0.055802315
-0.04172468 0.015873453 -0.03817595 0.035541765 -0.04838889 0.01815797 -0.0055505736 0.0718468
-0.048409514 -0.07152997 -0.08073654 0.06609159 -0.0126353605 -0.07371463 0.0070441067 0.024580946
0.07252519 -0.054902207 0.03468039 0.08269301 0.06828569 -0.03201198 -0.03788538 0.014797708
-0.0016854902 -0.07086244 -0.013774535 0.011880815 0.062176995 0.043651205 -0.01594307 0.035044562
0.025468033 0.023501258 0.050961774 -0.066584244 0.0383981 -0.01858297 -0.078955345 -0.023086458
0.013693671 -0.044775438 -0.043143027 -0.030292641 -0.046532504 -0.048472606 0.08211136 -0.059465162
0.039937627 -0.0297333 -0.016619962 0.041523747 -0.022317251 -0.027989805 0.03343632 -0.016088437
-0.016968181 -0.050428174 0.037777416 0.06441015 -0.03793786 -0.06988745 0.066872835 -0.049233507
-0.058904707 0.009633502 -0.0027323465 -0.020338407 0.012869607 -0.007856598 0.03047809 -0.07963964
-0.019220432 -0.044400573 -0.038753133 -0.034710646 -0.060480118 -0.062840104 -0.014410059 0.0708089
0.06144759 0.008926094 -0.077788614 0.030544132 0.018836211 -0.0091454 -0.04529663 -0.0450329
0.023455998 -0.012912999 0.03818968 0.07101845 0.07735925 -0.0708082 -0.07206337 -0.03749323
0.079558395 -0.055004947 0.05224366 -0.031971525 -0.012960474 -0.06779939 0.028802902 0.009185563
-0.010717809 0.06827085 0.03320398 -0.06859818 -0.03338371 -0.047249835 -0.070975006 -0.007516831
-0.041657012 -0.00036935013 0.011441946 -0.008416623 0.06713906 0.049147885 0.036786627 0.012838821
0.07770577 0.061520867 -0.038649153 -0.08207702
00000000: 3843 61bd f863 5c3d c332 89bd ac41 a03d
00000010: d67e 2b3d 36cc 203d f6bd 073d f890 643d
00000020: 80e7 2abd 0b09 823c 635e 1cbd 3e94 113d
00000030: 6e33 46bd 06c0 943c 96e1 b5bb 6a24 933d
00000040: 0e49 46bd 4e7e 92bd 3359 a5bd 075b 873d
00000050: 8b04 4fbc b2f7 96bd 40d2 e63b fb5d c93c
00000060: 1688 943d 23e1 60bd 060d 0e3d f45a a93d
00000070: 5ed9 8b3d fe1e 03bd b32d 1bbd 1672 723c
00000080: abeb dcba 5420 91bd 96ae 61bc c0a7 423c
00000090: 4ead 7e3d 9bcb 323d 0b9b 82bc e38a 0f3d
000000a0: 56a2 d03c b685 c03c 4bbd 503d 525d 88bd
000000b0: 5347 1d3d 503b 98bc 57b3 a1bd d01f bdbc
000000c0: 6b5b 603c 7366 37bd beb6 30bd 4628 f8bc
000000d0: de98 3ebd 368b 46bd 002a a83d be91 73bd
000000e0: a395 233d 4093 f3bc 9626 88bc ce14 2a3d
000000f0: abd2 b6bc e04a e5bc 86f4 083d e6cb 83bc
00000100: db00 8bbc c68d 4ebd 7ebc 1a3d 78e9 833d
00000110: bb64 1bbd 2721 8fbd a0f4 883d 13a9 49bd
00000120: 1046 71bd d6d5 1d3c 2b11 33bb bb9c a6bc
00000130: 0bdb 523c f6b8 00bc 30ad f93c 1c1a a3bd
00000140: 2b74 9dbc 60dd 35bd 9bbb 1ebd c02c 0ebd
00000150: 00ba 77bd 50b2 80bd 2b18 6cbc 4204 913d
00000160: 78b0 7b3d c03e 123c a34f 9fbd b037 fa3c
00000170: 664e 9a3c 96d6 15bc f688 39bd 6b74 38bd
00000180: cb26 c03c 0b91 53bc c86c 1c3d 1f72 913d
00000190: 876e 9e3d e403 91bd f695 93bd 8092 19bd
000001a0: 83ef a23d de4c 61bd 73fd 553d 93f4 02bd
000001b0: 2b58 54bc 68da 8abd 10f4 eb3c 0b7f 163c
000001c0: c099 2fbc 96d1 8b3d e600 083d 347d 8cbd
000001d0: 5bbd 08bd 0b89 41bd 585b 91bd c04f f6bb
000001e0: 8ba0 2abd 56a5 c1b9 0077 3b3c e0e5 09bc
000001f0: 3480 893d 4b4f 493d 93ad 163d eb59 523c
00000200: 3424 9f3d 4efd 7b3d 934e 1ebd ff17 a8bd

fully_connected.4.weight f4 [132]
1.0 1.0 1.0 1.0 1.0 1.0 1.0 1.0
1.0 1.0 1.0 1.0 1.0 1.0 1.0 1.0
1.0 1.0 1.0 1.0 1.0 1.0 1.0 1.0
1.0 1.0 1.0 1.0 1.0 1.0 1.0 1.0
1.0 1.0 1.0 1.0 1.0 1.0 1.0 1.0
1.0 1.0 1.0 1.0 1.0 1.0 1.0 1.0
1.0 1.0 1.0 1.0 1.0 1.0 1.0 1.0
1.0 1.0 1.0 1.0 1.0 1.0 1.0 1.0
1.0 1.0 1.0 1.0 1.0 1.0 1.0 1.0
1.0 1.0 1.0 1.0 1.0 1.0 1.0 1.0
1.0 1.0 1.0 1.0 1.0 1.0 1.0 1.0
1.0 1.0 1.0 1.0 1.0 1.0 1.0 1.0
1.0 1.0 1.0 1.0 1.0 1.0 1.0 1.0
1.0 1.0 1.0 1.0 1.0 1.0 1.0 1.0
1.0 1.0 1.0 1.0 1.0 1.0 1.0 1.0
1.0 1.0 1.0 1.0 1.0 1.0 1.0 1.0
1.0 1.0 1.0 1.0
00000000: 0000 803f 0000 803f 0000 803f 0000 803f
00000010: 0000 803f 0000 803f 0000 803f 0000 803f
00000020: 0000 803f 0000 803f 0000 803f 0000 803f
00000030: 0000 803f 0000 803f 0000 803f 0000 803f
00000040: 0000 803f 0000 803f 0000 803f 0000 803f
00000050: 0000 803f 0000 803f 0000 803f 0000 803f
00000060: 0000 803f 0000 803f 0000 803f 0000 803f
00000070: 0000 803f 0000 803f 0000 803f 0000 803f
00000080: 0000 803f 0000 803f 0000 803f 0000 803f
00000090: 0000 803f 0000 803f 0000 803f 0000 803f
000000a0: 0000 803f 0000 803f 0000 803f 0000 803f
000000b0: 0000 803f 0000 803f 0000 803f 0000 803f
000000c0: 0000 803f 0000 803f 0000 803f 0000 803f
000000d0: 0000 803f 0000 803f 0000 803f 0000 803f
000000e0: 0000 803f 0000 803f 0000 803f 0000 803f
000000f0: 0000 803f 0000 803f 0000 803f 0000 803f
00000100: 0000 803f 0000 803f 0000 803f 0000 803f
00000110: 0000 803f 0000 803f 0000 803f 0000 803f
00000120: 0000 803f 0000 803f 0000 803f 0000 803f
00000130: 0000 803f 0000 803f 0000 803f 0000 803f
00000140: 0000 803f 0000 803f 0000 803f 0000 803f
00000150: 0000 803f 0000 803f 0000 803f 0000 803f
00000160: 0000 803f 0000 803f 0000 803f 0000 803f
00000170: 0000 803f 0000 803f 0000 803f 0000 803f
00000180: 0000 803f 0000 803f 0000 803f 0000 803f
00000190: 0000 803f 0000 803f 0000 803f 0000 803f
000001a0: 0000 803f 0000 803f 0000 803f 0000 803f
000001b0: 0000 803f 0000 803f 0000 803f 0000 803f
000001c0: 0000 803f 0000 803f 0000 803f 0000 803f
000001d0: 0000 803f 0000 803f 0000 803f 0000 803f
000001e0: 0000 803f 0000 803f 0000 803f 0000 803f
000001f0: 0000 803f 0000 803f 0000 803f 0000 803f
00000200: 0000 803f 0000 803f 0000 803f 0000 803f

fully_connected.4.bias f4 [132]
0.0 0.0 0.0 0.0 0.0 0.0 0.0 0.0
0.0 0.0 0.0 0.0 0.0 0.0 0.0 0.0
0.0 0.0 0.0 0.0 0.0 0.0 0.0 0.0
0.0 0.0 0.0 0.0 0.0 0.0 0.0 0.0
0.0 0.0 0.0 0.0 0.0 0.0 0.0 0.0
0.0 0.0 0.0 0.0 0.0 0.0 0.0 0.0
0.0 0.0 0.0 0.0 0.0 0.0 0.0 0.0
0.0 0.0 0.0 0.0 0.0 0.0 0.0 0.0
0.0 0.0 0.0 0.0 0.0 0.0 0.0 0.0
0.0 0.0 0.0 0.0 0.0 0.0 0.0 0.0
0.0 0.0 0.0 0.0 0.0 0.0 0.0 0.0
0.0 0.0 0.0 0.0 0.0 0.0 0.0 0.0
0.0 0.0 0.0 0.0 0.0 0.0 0.0 0.0
0.0 0.0 0.0 0.0 0.0 0.0 0.0 0.0
0.0 0.0 0.0 0.0 0.0 0.0 0.0 0.0
0.0 0.0 0.0 0.0 0.0 0.0 0.0 0.0
0.0 0.0 0.0 0.0
00000000: 0000 0000 0000 0000 0000 0000 0000 0000
00000010: 0000 0000 0000 0000 0000 0000 0000 0000
00000020: 0000 0000 0000 0000 0000 0000 0000 0000
00000030: 0000 0000 0000 0000 0000 0000 0000 0000
00000040: 0000 0000 0000 0000 0000 0000 0000 0000
00000050: 0000 0000 0000 0000 0000 0000 0000 0000
00000060: 0000 0000 0000 0000 0000 0000 0000 0000
00000070: 0000 0000 0000 0000 0000 0000 0000 0000
00000080: 0000 0000 0000 0000 0000 0000 0000 0000
00000090: 0000 0000 0000 0000 0000 0000 0000 0000
000000a0: 0000 0000 0000 0000 0000 0000 0000 0000
000000b0: 0000 0000 0000 0000 0000 0000 0000 0000
000000c0: 0000 0000 0000 0000 0000 0000 0000 0000
000000d0: 0000 0000 0000 0000 0000 0000 0000 0000
000000e0: 0000 0000 0000 0000 0000 0000 0000 0000
000000f0: 0000 0000 0000 0000 0000 0000 0000 0000
00000100: 0000 0000 0000 0000 0000 0000 0000 0000
00000110: 0000 0000 0000 0000 0000 0000 0000 0000
00000120: 0000 0000 0000 0000 0000 0000 0000 0000
00000130: 0000 0000 0000 0000 0000 0000 0000 0000
00000140: 0000 0000 0000 0000 0000 0000 0000 0000
00000150: 0000 0000 0000 0000 0000 0000 0000 0000
00000160: 0000 0000 0000 0000 0000 0000 0000 0000
00000170: 0000 0000 0000 0000 0000 0000 0000 0000
00000180: 0000 0000 0000 0000 0000 0000 0000 0000
00000190: 0000 0000 0000 0000 0000 0000 0000 0000
000001a0: 0000 0000 0000 0000 0000 0000 0000 0000
000001b0: 0000 0000 0000 0000 0000 0000 0000 0000
000001c0: 0000 0000 0000 0000 0000 0000 0000 0000
000001d0: 0000 0000 0000 0000 0000 0000 0000 0000
000001e0: 0000 0000 0000 0000 0000 0000 0000 0000
000001f0: 0000 0000 0000 0000 0000 0000 0000 0000
00000200: 0000 0000 0000 0000 0000 0000 0000 0000

fully_connected.4.running_mean f4 [132]
0.0 0.0 0.0 0.0 0.0 0.0 0.0 0.0
0.0 0.0 0.0 0.0 0.0 0.0 0.0 0.0
0.0 0.0 0.0 0.0 0.0 0.0 0.0 0.0
0.0 0.0 0.0 0.0 0.0 0.0 0.0 0.0
0.0 0.0 0.0 0.0 0.0 0.0 0.0 0.0
0.0 0.0 0.0 0.0 0.0 0.0 0.0 0.0
0.0 0.0 0.0 0.0 0.0 0.0 0.0 0.0
0.0 0.0 0.0 0.0 0.0 0.0 0.0 0.0
0.0 0.0 0.0 0.0 0.0 0.0 0.0 0.0
0.0 0.0 0.0 0.0 0.0 0.0 0.0 0.0
0.0 0.0 0.0 0.0 0.0 0.0 0.0 0.0
0.0 0.0 0.0 0.0 0.0 0.0 0.0 0.0
0.0 0.0 0.0 0.0 0.0 0.0 0.0 0.0
0.0 0.0 0.0 0.0 0.0 0.0 0.0 0.0
0.0 0.0 0.0 0.0 0.0 0.0 0.0 0.0
0.0 0.0 0.0 0.0 0.0 0.0 0.0 0.0
0.0 0.0 0.0 0.0
00000000: 0000 0000 0000 0000 0000 0000 0000 0000
00000010: 0000 0000 0000 0000 0000 0000 0000 0000
00000020: 0000 0000 0000 0000 0000 0000 0000 0000
00000030: 0000 0000 0000 0000 0000 0000 0000 0000
00000040: 0000 0000 0000 0000 0000 0000 0000 0000
00000050: 0000 0000 0000 0000 0000 0000 0000 0000
00000060: 0000 0000 0000 0000 0000 0000 0000 0000
00000070: 0000 0000 0000 0000 0000 0000 0000 0000
00000080: 0000 0000 0000 0000 0000 0000 0000 0000
00000090: 0000 0000 0000 0000 0000 0000 0000 0000
000000a0: 0000 0000 0000 0000 0000 0000 0000 0000
000000b0: 0000 0000 0000 0000 0000 0000 0000 0000
000000c0: 0000 0000 0000 0000 0000 0000 0000 0000
000000d0: 0000 0000 0000 0000 0000 0000 0000 0000
000000e0: 0000 0000 0000 0000 0000 0000 0000 0000
000000f0: 0000 0000 0000 0000 0000 0000 0000 0000
00000100: 0000 0000 0000 0000 0000 0000 0000 0000
00000110: 0000 0000 0000 0000 0000 0000 0000 0000
00000120: 0000 0000 0000 0000 0000 0000 0000 0000
00000130: 0000 0000 0000 0000 0000 0000 0000 0000
00000140: 0000 0000 0000 0000 0000 0000 0000 0000
00000150: 0000 0000 0000 0000 0000 0000 0000 0000
00000160: 0000 0000 0000 0000 0000 0000 0000 0000
00000170: 0000 0000 0000 0000 0000 0000 0000 0000
00000180: 0000 0000 0000 0000 0000 0000 0000 0000
00000190: 0000 0000 0000 0000 0000 0000 0000 0000
000001a0: 0000 0000 0000 0000 0000 0000 0000 0000
000001b0: 0000 0000 0000 0000 0000 0000 0000 0000
000001c0: 0000 0000 0000 0000 0000 0000 0000 0000
000001d0: 0000 0000 0000 0000 0000 0000 0000 0000
000001e0: 0000 0000 0000 0000 0000 0000 0000 0000
000001f0: 0000 0000 0000 0000 0000 0000 0000 0000
00000200: 0000 0000 0000 0000 0000 0000 0000 0000

fully_connected.4.running_var f4 [132]
1.0 1.0 1.0 1.0 1.0 1.0 1.0 1.0
1.0 1.0 1.0 1.0 1.0 1.0 1.0 1.0
1.0 1.0 1.0 1.0 1.0 1.0 1.0 1.0
1.0 1.0 1.0 1.0 1.0 1.0 1.0 1.0
1.0 1.0 1.0 1.0 1.0 1.0 1.0 1.0
1.0 1.0 1.0 1.0 1.0 1.0 1.0 1.0
1.0 1.0 1.0 1.0 1.0 1.0 1.0 1.0
1.0 1.0 1.0 1.0 1.0 1.0 1.0 1.0
1.0 1.0 1.0 1.0 1.0 1.0 1.0 1.0
1.0 1.0 1.0 1.0 1.0 1.0 1.0 1.0
1.0 1.0 1.0 1.0 1.0 1.0 1.0 1.0
1.0 1.0 1.0 1.0 1.0 1.0 1.0 1.0
1.0 1.0 1.0 1.0 1.0 1.0 1.0 1.0
1.0 1.0 1.0 1.0 1.0 1.0 1.0 1.0
1.0 1.0 1.0 1.0 1.0 1.0 1.0 1.0
1.0 1.0 1.0 1.0 1.0 1.0 1.0 1.0
1.0 1.0 1.0 1.0
00000000: 0000 803f 0000 803f 0000 803f 0000 803f
00000010: 0000 803f 0000 803f 0000 803f 0000 803f
00000020: 0000 803f 0000 803f 0000 803f 0000 803f
00000030: 0000 803f 0000 803f 0000 803f 0000 803f
00000040: 0000 803f 0000 803f 0000 803f 0000 803f
00000050: 0000 803f 0000 803f 0000 803f 0000 803f
00000060: 0000 803f 0000 803f 0000 803f 0000 803f
00000070: 0000 803f 0000 803f 0000 803f 0000 803f
00000080: 0000 803f 0000 803f 0000 803f 0000 803f
00000090: 0000 803f 0000 803f 0000 803f 0000 803f
000000a0: 0000 803f 0000 803f 0000 803f 0000 803f
000000b0: 0000 803f 0000 803f 0000 803f 0000 803f
000000c0: 0000 803f 0000 803f 0000 803f 0000 803f
000000d0: 0000 803f 0000 803f 0000 803f 0000 803f
000000e0: 0000 803f 0000 803f 0000 803f 0000 803f
000000f0: 0000 803f 0000 803f 0000 803f 0000 803f
00000100: 0000 803f 0000 803f 0000 803f 0000 803f
00000110: 0000 803f 0000 803f 0000 803f 0000 803f
00000120: 0000 803f 0000 803f 0000 803f 0000 803f
00000130: 0000 803f 0000 803f 0000 803f 0000 803f
00000140: 0000 803f 0000 803f 0000 803f 0000 803f
00000150: 0000 803f 0000 803f 0000 803f 0000 803f
00000160: 0000 803f 0000 803f 0000 803f 0000 803f
00000170: 0000 803f 0000 803f 0000 803f 0000 803f
00000180: 0000 803f 0000 803f 0000 803f 0000 803f
00000190: 0000 803f 0000 803f 0000 803f 0000 803f
000001a0: 0000 803f 0000 803f 0000 803f 0000 803f
000001b0: 0000 803f 0000 803f 0000 803f 0000 803f
000001c0: 0000 803f 0000 803f 0000 803f 0000 803f
000001d0: 0000 803f 0000 803f 0000 803f 0000 803f
000001e0: 0000 803f 0000 803f 0000 803f 0000 803f
000001f0: 0000 803f 0000 803f 0000 803f 0000 803f
00000200: 0000 803f 0000 803f 0000 803f 0000 803f
